train/model_quantized.tflite (tflite, 9928 bytes, 8 tensors)

sequential/dense_1/MatMul f4 [4, 16]
0	0x3cd32851	0.02577606
1	0xbdea16e6	-0.11430149
2	0x3ecc6948	0.39924073
3	0x3e0d113c	0.13776106
4	0xbed0eb56	-0.40804547
5	0x3d2d5abb	0.042322855
6	0xbe928c83	-0.28622827
7	0xbed3a7b3	-0.41338882
8	0x3f110536	0.56648576
9	0xbebd685d	-0.36993685
10	0xbf00760b	-0.5018012
11	0xbe82d034	-0.2554947
12	0xbcef0906	-0.029179107
13	0x3e30e7bc	0.172759
14	0x3e83080f	0.25592086
15	0xbec6e922	-0.3884974
16	0x3eeb5894	0.45966017
17	0x3e9d35e1	0.3070517
18	0xbecea55a	-0.40360528
19	0x3e62a459	0.22133006
20	0xbdc8f20a	-0.0981179
21	0x3ddcfc57	0.107903175
22	0x3e4d5723	0.20052771
23	0x3ee79d61	0.45237258
24	0x3e6b790d	0.22995396
25	0xbed2d0d0	-0.41174936
26	0x3e9f632b	0.31130347
27	0x3f11b129	0.5691095
28	0xbeac65d3	-0.33671436
29	0xbedc9076	-0.43078965
30	0x3ea942a5	0.33058658
31	0x3eee90ca	0.4659484
32	0x3e929da0	0.28635883
33	0xbf8e2b0e	-1.1106889
34	0xbfb0dd2c	-1.3817496
35	0xbe2b010a	-0.16699615
36	0xbf10b779	-0.5652996
37	0xbf7c923b	-0.9866063
38	0x3d87b091	0.06625474
39	0xbf03cc6d	-0.51483804
40	0xbf0bb6a8	-0.54575586
41	0x3ec8e780	0.3923912
42	0x3e3fcc88	0.18730366
43	0x3e46b94d	0.19406624
44	0xbe900f35	-0.28136602
45	0x3eb81bb5	0.3595864
46	0xc005a5b2	-2.0882382
47	0x3d3c0db4	0.045911506
48	0x3eb6358e	0.35587734
49	0xbde61670	-0.11234748
50	0xbe836225	-0.25660816
51	0xbf427638	-0.7596164
52	0x3da47d71	0.080317385
53	0xbfde241e	-1.7354772
54	0x3e6e919a	0.2329773
55	0xbea7e513	-0.32791957
56	0xbe5212d4	-0.20514995
57	0xbea6434c	-0.32473218
58	0xbf4a25b0	-0.78963757
59	0x3ece9b3b	0.40352806
60	0xbfabba90	-1.3416309
61	0x3e99f85d	0.300723
62	0xbf9441e4	-1.1582608
63	0xbf0cd7ee	-0.5501698

sequential/conv2d/BiasAdd/ReadVariableOp f4 [8]
0	0xbf579d02	-0.8422395
1	0x3ee9e65a	0.45683557
2	0xbf30fd3c	-0.69136405
3	0xbef4298e	-0.47687954
4	0xbf8a73c8	-1.0816584
5	0xbf4c3338	-0.79765654
6	0xbf921867	-1.1413697
7	0xbf17d36b	-0.59306973

sequential/conv2d_1/BiasAdd/ReadVariableOp f4 [16]
0	0xbee569ef	-0.44807383
1	0xbb14e95a	-0.0022722096
2	0xbe53bd25	-0.20677622
3	0xbf01fd9d	-0.5077761
4	0x3e8fbb94	0.28072798
5	0xbda2774c	-0.0793291
6	0x3f134d82	0.5754014
7	0x3eeb56be	0.45964617
8	0x3f14d83c	0.5814245
9	0xbe564060	-0.20922995
10	0xbe73a8cf	-0.23794864
11	0x3c0ea6fc	0.008706804
12	0xbf1441a2	-0.5791265
13	0xbf8edeec	-1.116178
14	0x3ed1e1ed	0.4099268
15	0xbed5bd89	-0.41746166

sequential/conv2d/Conv2D f4 [8, 4, 3, 1]
0	0x3e3773da	0.17915288
1	0xbddb8f4f	-0.10720693
2	0x3d9aca07	0.07558065
3	0x3dc985a9	0.09839947
4	0xbdf18b92	-0.11794199
5	0x3d00fd42	0.031491525
6	0xbcf6af53	-0.030112898
7	0x3e9a5db2	0.3014961
8	0xbe19e21e	-0.15027663
9	0xbdcb6b1f	-0.09932541
10	0xbde45113	-0.11148276
11	0x3d1eaa6d	0.03873675
12	0xbdaf0da6	-0.08547525
13	0xbe2575f1	-0.16158272
14	0xbea07ccb	-0.3134521
15	0x3e0893e5	0.13337667
16	0xbde023ad	-0.109443046
17	0xbe5fa768	-0.21841204
18	0xbc080cea	-0.00830386
19	0x3e1c11f1	0.15241219
20	0x3d845497	0.06461447
21	0xbe03f811	-0.12887599
22	0xbc68a964	-0.014200542
23	0xbe7098f3	-0.23495845
24	0x3a2af91f	0.0006522107
25	0xbe87e466	-0.26541442
26	0x3ddbfd9c	0.107417315
27	0x3c690db5	0.014224459
28	0x3e7984a1	0.24367
29	0xbcdff551	-0.027338656
30	0x3cb9de5f	0.022689043
31	0xbbe613be	-0.0070213964
32	0xbdbccc82	-0.09218694
33	0xbd253b9c	-0.04034005
34	0xbe0b4dc0	-0.13603878
35	0xbca76e78	-0.020438418
36	0x3e1c0329	0.1523558
37	0xbdc59ff0	-0.09649646
38	0xbd66e60b	-0.05637173
39	0xbd4691a6	-0.048478745
40	0xbe535cc8	-0.20640862
41	0x3dc5c097	0.09655874
42	0x3dceb04e	0.10092221
43	0xbdf33922	-0.118761316
44	0xbabcc65a	-0.0014402375
45	0xbc9253c6	-0.017862212
46	0xbd671ee4	-0.056425944
47	0x3db56f8f	0.08859169
48	0xbd4fedf9	-0.050764058
49	0x3cda071c	0.026614718
50	0x3ead194c	0.33808362
51	0xbe2bd69e	-0.16781089
52	0x3e260e0b	0.16216294
53	0xbdfa436c	-0.12219891
54	0xbd933658	-0.071880996
55	0x3d9cc274	0.076542765
56	0xbd94ed07	-0.07271772
57	0x3e814b75	0.25252882
58	0xbe3db88f	-0.18527435
59	0xbe172f88	-0.14764225
60	0xbbbbefe4	-0.0057353843
61	0xbdb1ef09	-0.086881705
62	0xbe869fc2	-0.2629376
63	0xbcd4c72b	-0.025973877
64	0x3dcbb934	0.09947434
65	0x3e157516	0.14595446
66	0x3b83e237	0.0040247696
67	0x3dddddb0	0.10833299
68	0x3d5051f8	0.05085942
69	0x3d465e6b	0.048429888
70	0xbe345de4	-0.17613941
71	0x3e0c0397	0.13673244
72	0x3d736d26	0.059430264
73	0xbde82e3f	-0.11336946
74	0x3e961fb6	0.2932107
75	0x3dccca58	0.099995315
76	0x3dbb9485	0.09159187
77	0x3e0aa720	0.13540316
78	0xbb7c3d46	-0.003848867
79	0xbd1b134e	-0.037860207
80	0xbdbac16d	-0.09118924
81	0xbdf54107	-0.119752936
82	0x3bc7138b	0.0060753278
83	0xbe97512a	-0.2955411
84	0x3d515b31	0.051112358
85	0xbd382738	-0.044959277
86	0x3c417550	0.011807755
87	0xbe261dbf	-0.16222285
88	0xbd76f4eb	-0.060292166
89	0xbd3677b0	-0.044547737
90	0x3dd701ff	0.104984276
91	0x3e7ace97	0.2449287
92	0x3d8e48ba	0.06947465
93	0xbe101cc4	-0.14073473
94	0xbd4667ee	-0.04843896
95	0xbde5be40	-0.11217928

sequential/conv2d_1/Conv2D f4 [16, 4, 1, 8]
0	0x3d238229	0.039919052
1	0xbe5c84aa	-0.21534982
2	0x3e647dce	0.22313616
3	0x3e828599	0.25492552
4	0x3e8b407a	0.2719763
5	0x3db25a95	0.087086834
6	0x3e91e6c6	0.2849638
7	0x3da9ce8b	0.08291348
8	0x3e5afff0	0.21386695
9	0x3d8f6f4b	0.07003649
10	0x3e31e037	0.17370687
11	0x3d953ab3	0.072865866
12	0xbd909d4b	-0.07061251
13	0x3e178087	0.14795123
14	0xbdfd7365	-0.123755254
15	0xbe1a8a41	-0.15091802
16	0x3d4983ab	0.049197834
17	0xbe9198bc	-0.2843684
18	0xbada4278	-0.0016651889
19	0xbd113470	-0.0354504
20	0x3e2870f8	0.16449344
21	0x3e075106	0.13214502
22	0x3de1425d	0.10998986
23	0xbc9b86d3	-0.018985188
24	0x3d17a84c	0.037025735
25	0xbea0ccb1	-0.31406167
26	0x3d769861	0.060203914
27	0xbdf89f8b	-0.121398054
28	0xbb386e35	-0.002814186
29	0xbc9f268c	-0.01942756
30	0x3c976cb4	0.01848445
31	0x3e0cc10a	0.13745514
32	0xbe96cbba	-0.29452306
33	0x3dbbc52a	0.091684654
34	0xbe96be94	-0.29442275
35	0x3dd2e3f1	0.102973826
36	0x3df64bc4	0.1202617
37	0x3d88e397	0.06684034
38	0xbe34c635	-0.17653735
39	0x3e16b9a4	0.14719254
40	0xbe29719b	-0.16547243
41	0xbe00a26d	-0.1256196
42	0xbdb4008f	-0.08789169
43	0xbe817b6e	-0.25289482
44	0xbddc8b2e	-0.10768734
45	0x3e201687	0.15633593
46	0xbdb1662f	-0.08662068
47	0xbe71ad8a	-0.23601356
48	0xbda4eba7	-0.080527596
49	0x3d8a85da	0.067638114
50	0xbdba43d9	-0.09094972
51	0xbd1fee42	-0.03904558
52	0xbdcd5552	-0.10026039
53	0xbe2ec7fb	-0.17068474
54	0x3d816c36	0.06319468
55	0x3c73253e	0.014840422
56	0xbdbb2e19	-0.09139652
57	0xbdae12a7	-0.084996514
58	0x3e2d950b	0.16951387
59	0xbe0909e1	-0.13382675
60	0x3e65674b	0.22402684
61	0xbddc241c	-0.10749075
62	0x3eae7066	0.34070128
63	0xbe1ffc2a	-0.15623537
64	0xbeb8c005	-0.36084
65	0xbe89c76c	-0.2690996
66	0xbed0f054	-0.40808356
67	0xbea3d176	-0.31995744
68	0xbea25d79	-0.3171194
69	0xbe9ca444	-0.30594075
70	0xbe450498	-0.19240034
71	0xbe65a8f1	-0.22427727
72	0xbdbdb044	-0.092621356
73	0x3b5b13d1	0.003342856
74	0xbe61c6f5	-0.22048552
75	0xbe3caeed	-0.18426104
76	0xbde4a9b6	-0.11165182
77	0xbda5e1be	-0.080996975
78	0x3e83313b	0.25623497
79	0xbddf8d26	-0.10915594
80	0xbdc6eb9c	-0.09712908
81	0x3e4ec93f	0.20193957
82	0xbd40e682	-0.04709483
83	0xbcbb5030	-0.022865385
84	0x3e6e7004	0.23284918
85	0x3df7a27e	0.1209154
86	0x3d5969a6	0.05307927
87	0x3e404aa7	0.18778478
88	0x3e02b492	0.12764195
89	0x3c092476	0.008370509
90	0x3cfc1213	0.030770337
91	0x3d2b752e	0.041859798
92	0x3e907e88	0.28221536
93	0x3e19febc	0.1503858
94	0x3ce21e05	0.027602205
95	0x3ead1a7b	0.33809265
96	0xbd2ee49f	-0.0426985
97	0x3e456576	0.19276986
98	0xbe3e9ec2	-0.18615249
99	0x3d2de61d	0.04245578
100	0xbe3eb61b	-0.18624155
101	0xbdabbf5a	-0.08386107
102	0x3daa24bf	0.0830779
103	0x3e781b61	0.24229194
104	0x3c890ef0	0.016730756
105	0x3c1c5de8	0.009543873
106	0x3e356f3e	0.17718217
107	0x3e3d1e3d	0.18468566
108	0xbe1dcaa2	-0.1540933
109	0xbe21a489	-0.15785421
110	0xbde29a3e	-0.110645756
111	0x3df0da23	0.11760356
112	0xbeb16093	-0.34643993
113	0xbdecb5aa	-0.11558087
114	0x3cc5bad5	0.02413694
115	0xbe9a943e	-0.30191225
116	0xbbfb0b7d	-0.0076612816
117	0x3e2bcff3	0.16778545
118	0xbe26efb7	-0.16302381
119	0xbe2811d4	-0.16413051
120	0xbdfa47d7	-0.122207336
121	0xbe78ff0e	-0.24316046
122	0xbe942a0e	-0.28938335
123	0x3da18f31	0.0788864
124	0xbdee8d95	-0.116480984
125	0x3d14620e	0.036226325
126	0x3e12dc32	0.1434181
127	0xbe5410fd	-0.20709606
128	0xbd8051cf	-0.06265604
129	0xbea94971	-0.33063844
130	0xbe2a7046	-0.16644391
131	0xbe8d58c9	-0.276068
132	0xbe5de9ae	-0.21671173
133	0xbe2ff4a1	-0.17183162
134	0xbd653226	-0.05595603
135	0xbe98f1ae	-0.29871887
136	0xbe94006e	-0.28906578
137	0xbe7dbdb6	-0.247794
138	0xbd5e6dd6	-0.054303966
139	0xbe079323	-0.13239722
140	0xbe6eef4e	-0.23333475
141	0xbe3eb2b1	-0.18622853
142	0xbebc3ea5	-0.36766544
143	0xbe205964	-0.156591
144	0x3e03688a	0.12832847
145	0xbb8b4044	-0.0042496044
146	0xbe847b27	-0.25875208
147	0x3ca3bbe8	0.019987062
148	0x3b2e64d9	0.0026610403
149	0x3c84e5b2	0.016222809
150	0xbdd00856	-0.1015784
151	0x3dac5036	0.084137365
152	0x3da6c64d	0.081432916
153	0xbce7eb83	-0.028310543
154	0x3d557639	0.0521147
155	0x3e330586	0.17482576
156	0x3e8f710a	0.2801593
157	0x3e749b13	0.23887281
158	0x3ecb479a	0.39703065
159	0x3c5fca97	0.013659141
160	0xbeb995eb	-0.3624719
161	0xbe1ac918	-0.15115774
162	0xbe81c7af	-0.2534766
163	0xbea9c6b3	-0.33159408
164	0xbe82724e	-0.25477833
165	0x3d66b658	0.05632624
166	0xbdc7d419	-0.09757251
167	0xbddbd744	-0.10734418
168	0xbe4010f7	-0.18756472
169	0xbe12e5f8	-0.14345539
170	0x3a3b883b	0.0007153784
171	0xbed3ef4f	-0.41393515
172	0x3e0dc0d6	0.13843092
173	0xbad0a669	-0.0015918735
174	0x3e608581	0.21925928
175	0xbe523971	-0.20529725
176	0x3e3645db	0.17800085
177	0x3c4ba990	0.012430564
178	0xbe956dea	-0.2918542
179	0xbe7efdb5	-0.24901469
180	0xbe24ed27	-0.16106091
181	0x3cecba3b	0.028897395
182	0xbdae74e2	-0.085183874
183	0xbdb965fd	-0.09052656
184	0x3e64b258	0.22333658
185	0x3d1b628c	0.03793578
186	0x3de21b42	0.11040355
187	0x3e023e2e	0.12719032
188	0x3e5a0ee4	0.21294743
189	0x3d9c1114	0.07620445
190	0x3e9ae52c	0.3025297
191	0x3ea87bdf	0.32907006
192	0xbe137bb7	-0.14402662
193	0xbf146ed1	-0.5798159
194	0x3e2c1bee	0.1680753
195	0x3d7590e7	0.059952643
196	0xbe0a866b	-0.13527839
197	0x3d55744d	0.052112866
198	0x3cafd70f	0.021464853
199	0xbd93b3bc	-0.07212016
200	0x3d7dbac4	0.06194569
201	0xbf1d1172	-0.61354744
202	0xbe901353	-0.28139743
203	0x3e4d14f9	0.20027532
204	0xbe58b2d7	-0.21161972
205	0xbd7b24dd	-0.061314452
206	0xbbe99ba4	-0.0071291495
207	0x3d4372ff	0.04771709
208	0x3d7b3b84	0.061336055
209	0xbf084708	-0.53233385
210	0x3deeee14	0.116665035
211	0xbddcecda	-0.10787363
212	0xbee5e014	-0.4489752
213	0x3d694b51	0.056956593
214	0xbe58540f	-0.21125816
215	0xbcbe59fc	-0.023236267
216	0xbcfb8550	-0.030703217
217	0xbeba428a	-0.3637889
218	0xbbfbdb4c	-0.0076860543
219	0x3e0f232d	0.13978262
220	0xbe09658b	-0.13417642
221	0xbdfb7bd1	-0.122794755
222	0xbd8c60a4	-0.0685437
223	0xbdd2b200	-0.10287857
224	0x3e4d7c56	0.20066962
225	0x3dd1127c	0.10208604
226	0xba971e38	-0.0011529392
227	0xbe8fbe59	-0.2807491
228	0x3de14a08	0.110004485
229	0xbe6bad93	-0.23015432
230	0x3d8f9ad6	0.070119545
231	0xbe737a22	-0.23777059
232	0xbd8f4b6a	-0.06996806
233	0xbc85df24	-0.016341753
234	0xbdad4c47	-0.084618144
235	0xbeb66278	-0.35622
236	0xbe146ae7	-0.14493905
237	0xbdc62dc6	-0.09676699
238	0xbe3e2e1c	-0.18572277
239	0xbd487a7c	-0.048944935
240	0xbeb93b3c	-0.36178005
241	0x3dc7abd9	0.09749574
242	0xbcab4877	-0.020908577
243	0xbd85a126	-0.06524877
244	0xbe5eccd5	-0.21757825
245	0xbe0ddde1	-0.13854171
246	0xbc88f8ae	-0.016720142
247	0xbe0905dc	-0.13381141
248	0xbe58be1e	-0.21166274
249	0xbec69ead	-0.38792935
250	0xbe64dea9	-0.22350563
251	0xbe16346e	-0.14668438
252	0xbd9ba05b	-0.07598945
253	0x3d9b34a0	0.07578397
254	0xbdcba165	-0.09942893
255	0xbea5f17b	-0.32410797

sequential/dense/BiasAdd/ReadVariableOp f4 [16]
0	0xbd14d4ce	-0.03633576
1	0xbdba19fd	-0.09086988
2	0x3f365b52	0.71233094
3	0xbf01db4d	-0.5072525
4	0xbe527225	-0.20551355
5	0xbf291611	-0.66049296
6	0xbdadc5fb	-0.084850274
7	0xbe0089a1	-0.12552501
8	0x3f312369	0.69194657
9	0xbe128f08	-0.14312375
10	0x3ee006e6	0.43755263
11	0xbbed3410	-0.0072388723
12	0x3f256c84	0.64618707
13	0xbe5d2a65	-0.21598203
14	0x3dc4722b	0.09592088
15	0xbe30d95f	-0.1727042

sequential/dense_1/BiasAdd/ReadVariableOp f4 [4]
0	0x3f18fe00	0.59762573
1	0xbecab3cc	-0.395903
2	0xc06e8361	-3.7267687
3	0xc068afb6	-3.6357245

sequential/dense/MatMul i1 [16, 224] scale=0.004958496 zero_point=0
0	0xd7	-0.20329833
1	0xd1	-0.2330493
2	0xe9	-0.114045404
3	0x19	0.1239624
4	0x2a	0.20825683
5	0x0d	0.06446045
6	0xea	-0.10908691
7	0x12	0.08925293
8	0xe2	-0.14875488
9	0xd3	-0.22313231
10	0xfb	-0.02479248
11	0x01	0.004958496
12	0xe1	-0.15371338
13	0xf3	-0.06446045
14	0x37	0.27271727
15	0xf2	-0.069418944
16	0xfd	-0.014875488
17	0xe0	-0.15867187
18	0xdc	-0.17850585
19	0xf2	-0.069418944
20	0x06	0.029750977
21	0xd9	-0.19338134
22	0x06	0.029750977
23	0x47	0.35205323
24	0x17	0.114045404
25	0xfe	-0.009916992
26	0x0f	0.07437744
27	0xf7	-0.044626463
28	0x24	0.17850585
29	0xd1	-0.2330493
30	0xfe	-0.009916992
31	0xed	-0.09421142
32	0x2d	0.22313231
33	0xd4	-0.21817382
34	0xba	-0.3470947
35	0xdb	-0.18346435
36	0xdf	-0.16363037
37	0xd5	-0.21321532
38	0x1f	0.15371338
39	0x4f	0.3917212
40	0xf1	-0.07437744
41	0xfa	-0.029750977
42	0x04	0.019833984
43	0xec	-0.09916992
44	0xf6	-0.04958496
45	0xce	-0.2479248
46	0xed	-0.09421142
47	0xdd	-0.17354736
48	0x18	0.11900391
49	0xf8	-0.039667968
50	0xd8	-0.19833983
51	0x08	0.039667968
52	0x01	0.004958496
53	0xd1	-0.2330493
54	0x1f	0.15371338
55	0x45	0.34213623
56	0xe6	-0.1289209
57	0xe3	-0.14379638
58	0x14	0.09916992
59	0x01	0.004958496
60	0xf3	-0.06446045
61	0xf1	-0.07437744
62	0x08	0.039667968
63	0x0e	0.069418944
64	0x16	0.10908691
65	0xd9	-0.19338134
66	0xba	-0.3470947
67	0x01	0.004958496
68	0xfa	-0.029750977
69	0xe6	-0.1289209
70	0x1d	0.14379638
71	0x38	0.27767578
72	0xef	-0.08429443
73	0x0f	0.07437744
74	0x10	0.079335935
75	0xf7	-0.044626463
76	0x05	0.02479248
77	0xf4	-0.059501953
78	0x0d	0.06446045
79	0xdc	-0.17850585
80	0xf8	-0.039667968
81	0x2d	0.22313231
82	0xe0	-0.15867187
83	0xfe	-0.009916992
84	0xed	-0.09421142
85	0xe4	-0.13883789
86	0x0f	0.07437744
87	0x51	0.40163818
88	0x29	0.20329833
89	0x1c	0.13883789
90	0xfd	-0.014875488
91	0xe1	-0.15371338
92	0x14	0.09916992
93	0xf1	-0.07437744
94	0x05	0.02479248
95	0xf8	-0.039667968
96	0xf6	-0.04958496
97	0x26	0.18842284
98	0xe2	-0.14875488
99	0x09	0.044626463
100	0x0e	0.069418944
101	0x07	0.034709472
102	0x23	0.17354736
103	0x54	0.41651365
104	0x44	0.33717772
105	0x0b	0.054543454
106	0x15	0.10412841
107	0xf0	-0.079335935
108	0x0e	0.069418944
109	0x05	0.02479248
110	0x22	0.16858886
111	0xfc	-0.019833984
112	0xe6	-0.1289209
113	0x05	0.02479248
114	0x03	0.014875488
115	0xf5	-0.054543454
116	0xe9	-0.114045404
117	0x04	0.019833984
118	0xff	-0.004958496
119	0x5f	0.47105712
120	0x29	0.20329833
121	0x12	0.08925293
122	0xf7	-0.044626463
123	0xdf	-0.16363037
124	0xe3	-0.14379638
125	0xda	-0.18842284
126	0x0b	0.054543454
127	0x08	0.039667968
128	0xe3	-0.14379638
129	0xf7	-0.044626463
130	0x0b	0.054543454
131	0xf1	-0.07437744
132	0x1b	0.1338794
133	0xf6	-0.04958496
134	0x14	0.09916992
135	0x4b	0.3718872
136	0x34	0.2578418
137	0x20	0.15867187
138	0xf9	-0.034709472
139	0xde	-0.16858886
140	0x00	0.0
141	0xfd	-0.014875488
142	0xff	-0.004958496
143	0xf5	-0.054543454
144	0xea	-0.10908691
145	0x06	0.029750977
146	0x10	0.079335935
147	0x05	0.02479248
148	0x00	0.0
149	0x10	0.079335935
150	0x07	0.034709472
151	0x51	0.40163818
152	0x18	0.11900391
153	0x04	0.019833984
154	0xe1	-0.15371338
155	0xdd	-0.17354736
156	0xd9	-0.19338134
157	0x15	0.10412841
158	0x0b	0.054543454
159	0x05	0.02479248
160	0xd5	-0.21321532
161	0xee	-0.08925293
162	0xf5	-0.054543454
163	0xf7	-0.044626463
164	0x0c	0.059501953
165	0xf0	-0.079335935
166	0xe1	-0.15371338
167	0x53	0.41155517
168	0x1d	0.14379638
169	0x00	0.0
170	0xed	-0.09421142
171	0xaf	-0.40163818
172	0xd9	-0.19338134
173	0x1b	0.1338794
174	0xdd	-0.17354736
175	0xf4	-0.059501953
176	0x05	0.02479248
177	0x0f	0.07437744
178	0xda	-0.18842284
179	0x1a	0.1289209
180	0xe9	-0.114045404
181	0x04	0.019833984
182	0x05	0.02479248
183	0x4e	0.38676268
184	0x1e	0.14875488
185	0x1c	0.13883789
186	0x0a	0.04958496
187	0xda	-0.18842284
188	0x19	0.1239624
189	0x22	0.16858886
190	0x08	0.039667968
191	0xef	-0.08429443
192	0xe8	-0.11900391
193	0xef	-0.08429443
194	0x0a	0.04958496
195	0xea	-0.10908691
196	0x08	0.039667968
197	0x2d	0.22313231
198	0xfe	-0.009916992
199	0x2d	0.22313231
200	0x3f	0.31238523
201	0x07	0.034709472
202	0xe0	-0.15867187
203	0xed	-0.09421142
204	0xe2	-0.14875488
205	0xfb	-0.02479248
206	0xd9	-0.19338134
207	0x20	0.15867187
208	0x0a	0.04958496
209	0xea	-0.10908691
210	0x46	0.3470947
211	0xe8	-0.11900391
212	0x0a	0.04958496
213	0x1d	0.14379638
214	0xfe	-0.009916992
215	0x1a	0.1289209
216	0x23	0.17354736
217	0x2d	0.22313231
218	0xe5	-0.1338794
219	0x03	0.014875488
220	0x1c	0.13883789
221	0xfb	-0.02479248
222	0xf5	-0.054543454
223	0x37	0.27271727
224	0x07	0.034709472
225	0xfe	-0.009916992
226	0x37	0.27271727
227	0xf5	-0.054543454
228	0x2e	0.22809081
229	0xcf	-0.24296631
230	0xd7	-0.20329833
231	0x1b	0.1338794
232	0xf3	-0.06446045
233	0x04	0.019833984
234	0x65	0.5008081
235	0x43	0.33221924
236	0xfb	-0.02479248
237	0xef	-0.08429443
238	0x16	0.10908691
239	0x27	0.19338134
240	0x0a	0.04958496
241	0x29	0.20329833
242	0xc1	-0.31238523
243	0xf1	-0.07437744
244	0xfa	-0.029750977
245	0xe1	-0.15371338
246	0xf3	-0.06446045
247	0x31	0.24296631
248	0xfd	-0.014875488
249	0x33	0.2528833
250	0x0d	0.06446045
251	0x29	0.20329833
252	0xd8	-0.19833983
253	0xc7	-0.28263426
254	0x2b	0.21321532
255	0xc0	-0.31734374
