train/model.tflite (tflite, 20604 bytes, 8 tensors)

sequential/conv2d/BiasAdd/ReadVariableOp f4 [8]
0	0xbf579d02	-0.8422395
1	0x3ee9e65a	0.45683557
2	0xbf30fd3c	-0.69136405
3	0xbef4298e	-0.47687954
4	0xbf8a73c8	-1.0816584
5	0xbf4c3338	-0.79765654
6	0xbf921867	-1.1413697
7	0xbf17d36b	-0.59306973

sequential/conv2d_1/BiasAdd/ReadVariableOp f4 [16]
0	0xbee569ef	-0.44807383
1	0xbb14e95a	-0.0022722096
2	0xbe53bd25	-0.20677622
3	0xbf01fd9d	-0.5077761
4	0x3e8fbb94	0.28072798
5	0xbda2774c	-0.0793291
6	0x3f134d82	0.5754014
7	0x3eeb56be	0.45964617
8	0x3f14d83c	0.5814245
9	0xbe564060	-0.20922995
10	0xbe73a8cf	-0.23794864
11	0x3c0ea6fc	0.008706804
12	0xbf1441a2	-0.5791265
13	0xbf8edeec	-1.116178
14	0x3ed1e1ed	0.4099268
15	0xbed5bd89	-0.41746166

sequential/conv2d/Conv2D f4 [8, 4, 3, 1]
0	0x3e3773da	0.17915288
1	0xbddb8f4f	-0.10720693
2	0x3d9aca07	0.07558065
3	0x3dc985a9	0.09839947
4	0xbdf18b92	-0.11794199
5	0x3d00fd42	0.031491525
6	0xbcf6af53	-0.030112898
7	0x3e9a5db2	0.3014961
8	0xbe19e21e	-0.15027663
9	0xbdcb6b1f	-0.09932541
10	0xbde45113	-0.11148276
11	0x3d1eaa6d	0.03873675
12	0xbdaf0da6	-0.08547525
13	0xbe2575f1	-0.16158272
14	0xbea07ccb	-0.3134521
15	0x3e0893e5	0.13337667
16	0xbde023ad	-0.109443046
17	0xbe5fa768	-0.21841204
18	0xbc080cea	-0.00830386
19	0x3e1c11f1	0.15241219
20	0x3d845497	0.06461447
21	0xbe03f811	-0.12887599
22	0xbc68a964	-0.014200542
23	0xbe7098f3	-0.23495845
24	0x3a2af91f	0.0006522107
25	0xbe87e466	-0.26541442
26	0x3ddbfd9c	0.107417315
27	0x3c690db5	0.014224459
28	0x3e7984a1	0.24367
29	0xbcdff551	-0.027338656
30	0x3cb9de5f	0.022689043
31	0xbbe613be	-0.0070213964
32	0xbdbccc82	-0.09218694
33	0xbd253b9c	-0.04034005
34	0xbe0b4dc0	-0.13603878
35	0xbca76e78	-0.020438418
36	0x3e1c0329	0.1523558
37	0xbdc59ff0	-0.09649646
38	0xbd66e60b	-0.05637173
39	0xbd4691a6	-0.048478745
40	0xbe535cc8	-0.20640862
41	0x3dc5c097	0.09655874
42	0x3dceb04e	0.10092221
43	0xbdf33922	-0.118761316
44	0xbabcc65a	-0.0014402375
45	0xbc9253c6	-0.017862212
46	0xbd671ee4	-0.056425944
47	0x3db56f8f	0.08859169
48	0xbd4fedf9	-0.050764058
49	0x3cda071c	0.026614718
50	0x3ead194c	0.33808362
51	0xbe2bd69e	-0.16781089
52	0x3e260e0b	0.16216294
53	0xbdfa436c	-0.12219891
54	0xbd933658	-0.071880996
55	0x3d9cc274	0.076542765
56	0xbd94ed07	-0.07271772
57	0x3e814b75	0.25252882
58	0xbe3db88f	-0.18527435
59	0xbe172f88	-0.14764225
60	0xbbbbefe4	-0.0057353843
61	0xbdb1ef09	-0.086881705
62	0xbe869fc2	-0.2629376
63	0xbcd4c72b	-0.025973877
64	0x3dcbb934	0.09947434
65	0x3e157516	0.14595446
66	0x3b83e237	0.0040247696
67	0x3dddddb0	0.10833299
68	0x3d5051f8	0.05085942
69	0x3d465e6b	0.048429888
70	0xbe345de4	-0.17613941
71	0x3e0c0397	0.13673244
72	0x3d736d26	0.059430264
73	0xbde82e3f	-0.11336946
74	0x3e961fb6	0.2932107
75	0x3dccca58	0.099995315
76	0x3dbb9485	0.09159187
77	0x3e0aa720	0.13540316
78	0xbb7c3d46	-0.003848867
79	0xbd1b134e	-0.037860207
80	0xbdbac16d	-0.09118924
81	0xbdf54107	-0.119752936
82	0x3bc7138b	0.0060753278
83	0xbe97512a	-0.2955411
84	0x3d515b31	0.051112358
85	0xbd382738	-0.044959277
86	0x3c417550	0.011807755
87	0xbe261dbf	-0.16222285
88	0xbd76f4eb	-0.060292166
89	0xbd3677b0	-0.044547737
90	0x3dd701ff	0.104984276
91	0x3e7ace97	0.2449287
92	0x3d8e48ba	0.06947465
93	0xbe101cc4	-0.14073473
94	0xbd4667ee	-0.04843896
95	0xbde5be40	-0.11217928

sequential/conv2d_1/Conv2D f4 [16, 4, 1, 8]
0	0x3d238229	0.039919052
1	0xbe5c84aa	-0.21534982
2	0x3e647dce	0.22313616
3	0x3e828599	0.25492552
4	0x3e8b407a	0.2719763
5	0x3db25a95	0.087086834
6	0x3e91e6c6	0.2849638
7	0x3da9ce8b	0.08291348
8	0x3e5afff0	0.21386695
9	0x3d8f6f4b	0.07003649
10	0x3e31e037	0.17370687
11	0x3d953ab3	0.072865866
12	0xbd909d4b	-0.07061251
13	0x3e178087	0.14795123
14	0xbdfd7365	-0.123755254
15	0xbe1a8a41	-0.15091802
16	0x3d4983ab	0.049197834
17	0xbe9198bc	-0.2843684
18	0xbada4278	-0.0016651889
19	0xbd113470	-0.0354504
20	0x3e2870f8	0.16449344
21	0x3e075106	0.13214502
22	0x3de1425d	0.10998986
23	0xbc9b86d3	-0.018985188
24	0x3d17a84c	0.037025735
25	0xbea0ccb1	-0.31406167
26	0x3d769861	0.060203914
27	0xbdf89f8b	-0.121398054
28	0xbb386e35	-0.002814186
29	0xbc9f268c	-0.01942756
30	0x3c976cb4	0.01848445
31	0x3e0cc10a	0.13745514
32	0xbe96cbba	-0.29452306
33	0x3dbbc52a	0.091684654
34	0xbe96be94	-0.29442275
35	0x3dd2e3f1	0.102973826
36	0x3df64bc4	0.1202617
37	0x3d88e397	0.06684034
38	0xbe34c635	-0.17653735
39	0x3e16b9a4	0.14719254
40	0xbe29719b	-0.16547243
41	0xbe00a26d	-0.1256196
42	0xbdb4008f	-0.08789169
43	0xbe817b6e	-0.25289482
44	0xbddc8b2e	-0.10768734
45	0x3e201687	0.15633593
46	0xbdb1662f	-0.08662068
47	0xbe71ad8a	-0.23601356
48	0xbda4eba7	-0.080527596
49	0x3d8a85da	0.067638114
50	0xbdba43d9	-0.09094972
51	0xbd1fee42	-0.03904558
52	0xbdcd5552	-0.10026039
53	0xbe2ec7fb	-0.17068474
54	0x3d816c36	0.06319468
55	0x3c73253e	0.014840422
56	0xbdbb2e19	-0.09139652
57	0xbdae12a7	-0.084996514
58	0x3e2d950b	0.16951387
59	0xbe0909e1	-0.13382675
60	0x3e65674b	0.22402684
61	0xbddc241c	-0.10749075
62	0x3eae7066	0.34070128
63	0xbe1ffc2a	-0.15623537
64	0xbeb8c005	-0.36084
65	0xbe89c76c	-0.2690996
66	0xbed0f054	-0.40808356
67	0xbea3d176	-0.31995744
68	0xbea25d79	-0.3171194
69	0xbe9ca444	-0.30594075
70	0xbe450498	-0.19240034
71	0xbe65a8f1	-0.22427727
72	0xbdbdb044	-0.092621356
73	0x3b5b13d1	0.003342856
74	0xbe61c6f5	-0.22048552
75	0xbe3caeed	-0.18426104
76	0xbde4a9b6	-0.11165182
77	0xbda5e1be	-0.080996975
78	0x3e83313b	0.25623497
79	0xbddf8d26	-0.10915594
80	0xbdc6eb9c	-0.09712908
81	0x3e4ec93f	0.20193957
82	0xbd40e682	-0.04709483
83	0xbcbb5030	-0.022865385
84	0x3e6e7004	0.23284918
85	0x3df7a27e	0.1209154
86	0x3d5969a6	0.05307927
87	0x3e404aa7	0.18778478
88	0x3e02b492	0.12764195
89	0x3c092476	0.008370509
90	0x3cfc1213	0.030770337
91	0x3d2b752e	0.041859798
92	0x3e907e88	0.28221536
93	0x3e19febc	0.1503858
94	0x3ce21e05	0.027602205
95	0x3ead1a7b	0.33809265
96	0xbd2ee49f	-0.0426985
97	0x3e456576	0.19276986
98	0xbe3e9ec2	-0.18615249
99	0x3d2de61d	0.04245578
100	0xbe3eb61b	-0.18624155
101	0xbdabbf5a	-0.08386107
102	0x3daa24bf	0.0830779
103	0x3e781b61	0.24229194
104	0x3c890ef0	0.016730756
105	0x3c1c5de8	0.009543873
106	0x3e356f3e	0.17718217
107	0x3e3d1e3d	0.18468566
108	0xbe1dcaa2	-0.1540933
109	0xbe21a489	-0.15785421
110	0xbde29a3e	-0.110645756
111	0x3df0da23	0.11760356
112	0xbeb16093	-0.34643993
113	0xbdecb5aa	-0.11558087
114	0x3cc5bad5	0.02413694
115	0xbe9a943e	-0.30191225
116	0xbbfb0b7d	-0.0076612816
117	0x3e2bcff3	0.16778545
118	0xbe26efb7	-0.16302381
119	0xbe2811d4	-0.16413051
120	0xbdfa47d7	-0.122207336
121	0xbe78ff0e	-0.24316046
122	0xbe942a0e	-0.28938335
123	0x3da18f31	0.0788864
124	0xbdee8d95	-0.116480984
125	0x3d14620e	0.036226325
126	0x3e12dc32	0.1434181
127	0xbe5410fd	-0.20709606
128	0xbd8051cf	-0.06265604
129	0xbea94971	-0.33063844
130	0xbe2a7046	-0.16644391
131	0xbe8d58c9	-0.276068
132	0xbe5de9ae	-0.21671173
133	0xbe2ff4a1	-0.17183162
134	0xbd653226	-0.05595603
135	0xbe98f1ae	-0.29871887
136	0xbe94006e	-0.28906578
137	0xbe7dbdb6	-0.247794
138	0xbd5e6dd6	-0.054303966
139	0xbe079323	-0.13239722
140	0xbe6eef4e	-0.23333475
141	0xbe3eb2b1	-0.18622853
142	0xbebc3ea5	-0.36766544
143	0xbe205964	-0.156591
144	0x3e03688a	0.12832847
145	0xbb8b4044	-0.0042496044
146	0xbe847b27	-0.25875208
147	0x3ca3bbe8	0.019987062
148	0x3b2e64d9	0.0026610403
149	0x3c84e5b2	0.016222809
150	0xbdd00856	-0.1015784
151	0x3dac5036	0.084137365
152	0x3da6c64d	0.081432916
153	0xbce7eb83	-0.028310543
154	0x3d557639	0.0521147
155	0x3e330586	0.17482576
156	0x3e8f710a	0.2801593
157	0x3e749b13	0.23887281
158	0x3ecb479a	0.39703065
159	0x3c5fca97	0.013659141
160	0xbeb995eb	-0.3624719
161	0xbe1ac918	-0.15115774
162	0xbe81c7af	-0.2534766
163	0xbea9c6b3	-0.33159408
164	0xbe82724e	-0.25477833
165	0x3d66b658	0.05632624
166	0xbdc7d419	-0.09757251
167	0xbddbd744	-0.10734418
168	0xbe4010f7	-0.18756472
169	0xbe12e5f8	-0.14345539
170	0x3a3b883b	0.0007153784
171	0xbed3ef4f	-0.41393515
172	0x3e0dc0d6	0.13843092
173	0xbad0a669	-0.0015918735
174	0x3e608581	0.21925928
175	0xbe523971	-0.20529725
176	0x3e3645db	0.17800085
177	0x3c4ba990	0.012430564
178	0xbe956dea	-0.2918542
179	0xbe7efdb5	-0.24901469
180	0xbe24ed27	-0.16106091
181	0x3cecba3b	0.028897395
182	0xbdae74e2	-0.085183874
183	0xbdb965fd	-0.09052656
184	0x3e64b258	0.22333658
185	0x3d1b628c	0.03793578
186	0x3de21b42	0.11040355
187	0x3e023e2e	0.12719032
188	0x3e5a0ee4	0.21294743
189	0x3d9c1114	0.07620445
190	0x3e9ae52c	0.3025297
191	0x3ea87bdf	0.32907006
192	0xbe137bb7	-0.14402662
193	0xbf146ed1	-0.5798159
194	0x3e2c1bee	0.1680753
195	0x3d7590e7	0.059952643
196	0xbe0a866b	-0.13527839
197	0x3d55744d	0.052112866
198	0x3cafd70f	0.021464853
199	0xbd93b3bc	-0.07212016
200	0x3d7dbac4	0.06194569
201	0xbf1d1172	-0.61354744
202	0xbe901353	-0.28139743
203	0x3e4d14f9	0.20027532
204	0xbe58b2d7	-0.21161972
205	0xbd7b24dd	-0.061314452
206	0xbbe99ba4	-0.0071291495
207	0x3d4372ff	0.04771709
208	0x3d7b3b84	0.061336055
209	0xbf084708	-0.53233385
210	0x3deeee14	0.116665035
211	0xbddcecda	-0.10787363
212	0xbee5e014	-0.4489752
213	0x3d694b51	0.056956593
214	0xbe58540f	-0.21125816
215	0xbcbe59fc	-0.023236267
216	0xbcfb8550	-0.030703217
217	0xbeba428a	-0.3637889
218	0xbbfbdb4c	-0.0076860543
219	0x3e0f232d	0.13978262
220	0xbe09658b	-0.13417642
221	0xbdfb7bd1	-0.122794755
222	0xbd8c60a4	-0.0685437
223	0xbdd2b200	-0.10287857
224	0x3e4d7c56	0.20066962
225	0x3dd1127c	0.10208604
226	0xba971e38	-0.0011529392
227	0xbe8fbe59	-0.2807491
228	0x3de14a08	0.110004485
229	0xbe6bad93	-0.23015432
230	0x3d8f9ad6	0.070119545
231	0xbe737a22	-0.23777059
232	0xbd8f4b6a	-0.06996806
233	0xbc85df24	-0.016341753
234	0xbdad4c47	-0.084618144
235	0xbeb66278	-0.35622
236	0xbe146ae7	-0.14493905
237	0xbdc62dc6	-0.09676699
238	0xbe3e2e1c	-0.18572277
239	0xbd487a7c	-0.048944935
240	0xbeb93b3c	-0.36178005
241	0x3dc7abd9	0.09749574
242	0xbcab4877	-0.020908577
243	0xbd85a126	-0.06524877
244	0xbe5eccd5	-0.21757825
245	0xbe0ddde1	-0.13854171
246	0xbc88f8ae	-0.016720142
247	0xbe0905dc	-0.13381141
248	0xbe58be1e	-0.21166274
249	0xbec69ead	-0.38792935
250	0xbe64dea9	-0.22350563
251	0xbe16346e	-0.14668438
252	0xbd9ba05b	-0.07598945
253	0x3d9b34a0	0.07578397
254	0xbdcba165	-0.09942893
255	0xbea5f17b	-0.32410797

sequential/dense/BiasAdd/ReadVariableOp f4 [16]
0	0xbd14d4ce	-0.03633576
1	0xbdba19fd	-0.09086988
2	0x3f365b52	0.71233094
3	0xbf01db4d	-0.5072525
4	0xbe527225	-0.20551355
5	0xbf291611	-0.66049296
6	0xbdadc5fb	-0.084850274
7	0xbe0089a1	-0.12552501
8	0x3f312369	0.69194657
9	0xbe128f08	-0.14312375
10	0x3ee006e6	0.43755263
11	0xbbed3410	-0.0072388723
12	0x3f256c84	0.64618707
13	0xbe5d2a65	-0.21598203
14	0x3dc4722b	0.09592088
15	0xbe30d95f	-0.1727042

sequential/dense_1/BiasAdd/ReadVariableOp f4 [4]
0	0x3f18fe00	0.59762573
1	0xbecab3cc	-0.395903
2	0xc06e8361	-3.7267687
3	0xc068afb6	-3.6357245

sequential/dense/MatMul f4 [16, 224]
0	0xbe50abb5	-0.20378001
1	0xbe6f9455	-0.23396428
2	0xbdea7994	-0.114489704
3	0x3dfbc7aa	0.12293942
4	0x3e574421	0.21022083
5	0x3d7ed397	0.062213507
6	0xbddad363	-0.1068485
7	0x3db3cd13	0.08779349
8	0xbe18d948	-0.14926636
9	0xbe6500e2	-0.22363618
10	0xbcb9563d	-0.02262413
11	0x3be90f7f	0.007112443
12	0xbe1d7e24	-0.1538015
13	0xbd7fcbd7	-0.062450256
14	0x3e8b0db7	0.271589
15	0xbd8e1722	-0.06938006
16	0xbc70b444	-0.014691416
17	0xbe2133be	-0.15742394
18	0xbe3789e4	-0.17923695
19	0xbd8a5882	-0.06755163
20	0x3ced632c	0.028977953
21	0xbe4709d4	-0.19437343
22	0x3cec173e	0.028819676
23	0x3eb46a64	0.3523742
24	0x3dedead3	0.11617055
25	0xbbf7f1ba	-0.007566658
26	0x3d9bee42	0.076138034
27	0xbd2ee6d3	-0.0427006
28	0x3e378b74	0.17924291
29	0xbe6cd11e	-0.23126647
30	0xbc012d54	-0.007884342
31	0xbdbd1a5c	-0.09233543
32	0x3e648044	0.22314554
33	0xbe613a4b	-0.21994893
34	0xbeb1f717	-0.34758827
35	0xbe3aa153	-0.18225603
36	0xbe27152b	-0.16316669
37	0xbe5aba3e	-0.21360108
38	0x3e1dd5dd	0.15413614
39	0x3ec85ea8	0.39134717
40	0xbd9422e9	-0.07233221
41	0xbcf8aeb6	-0.030356746
42	0x3c96c7fc	0.018405907
43	0xbdc7db42	-0.09758617
44	0xbd4683cc	-0.048465535
45	0xbe7c8357	-0.24659477
46	0xbdc25306	-0.09488492
47	0xbe307ae8	-0.17234385
48	0x3df707d5	0.12062041
49	0xbd1ae942	-0.03782011
50	0xbe4a71fc	-0.19770044
51	0x3d1d1b7c	0.03835629
52	0x3bce74f2	0.006300562
53	0xbe70d813	-0.23519926
54	0x3e1f2990	0.15543199
55	0x3eaf3036	0.3421647
56	0xbe03da8a	-0.12876335
57	0xbe153103	-0.14569478
58	0x3dc8186e	0.097702846
59	0x3b6f06a4	0.0036472464
60	0xbd80cbdc	-0.06288883
61	0xbd972a6c	-0.07381138
62	0x3d222af6	0.039591752
63	0x3d9012aa	0.0703481
64	0x3ddf450c	0.109018415
65	0xbe446a49	-0.1918117
66	0xbeb075b6	-0.34464806
67	0x3b60230b	0.0034200575
68	0xbcedbe54	-0.02902142
69	0xbe041335	-0.12897952
70	0x3e158ec9	0.1460525
71	0x3e8d1b13	0.27559718
72	0xbdaaf7f2	-0.08348073
73	0x3d9acb02	0.07558252
74	0x3da5e912	0.08101095
75	0xbd2cac04	-0.042156234
76	0x3cd566f3	0.026050067
77	0xbd6c8f1d	-0.05775367
78	0x3d83687f	0.064164154
79	0xbe36e480	-0.17860603
80	0xbd25a80f	-0.040443476
81	0x3e620d50	0.22075391
82	0xbe20faea	-0.15720716
83	0xbc20f9eb	-0.00982521
84	0xbdc30743	-0.095228694
85	0xbe0c66ea	-0.13711134
86	0x3d9ce5de	0.07661031
87	0x3eccfaa1	0.40034965
88	0x3e512103	0.20422749
89	0x3e10413d	0.14087386
90	0xbc8809a3	-0.016606158
91	0xbe1f8446	-0.15577802
92	0x3dced335	0.10098878
93	0xbd9c3e5a	-0.0762908
94	0x3cd40bcc	0.025884531
95	0xbd19a9e7	-0.037515547
96	0xbd48aebe	-0.048994772
97	0x3e427ab3	0.18992119
98	0xbe16bfef	-0.14721654
99	0x3d3a049a	0.045414545
100	0x3d8b41d9	0.06799669
101	0x3d0fb28c	0.035082385
102	0x3e33df43	0.17565636
103	0x3ed5cdf7	0.417587
104	0x3eabd6fe	0.33562464
105	0x3d5e18c3	0.054222833
106	0x3dd06998	0.101763904
107	0xbda4e05f	-0.08050608
108	0x3d9120b3	0.07086315
109	0x3cb74ce7	0.022375537
110	0x3e2cb666	0.16866454
111	0xbcb69228	-0.02228649
112	0xbe01edaa	-0.12688318
113	0x3cb93334	0.022607423
114	0x3c4d612c	0.012535375
115	0xbd607108	-0.054795295
116	0xbde4e2ab	-0.11176046
117	0x3c9d55d0	0.019205958
118	0xbba704e3	-0.005097018
119	0x3ef0bd44	0.47019398
120	0x3e4f036f	0.20216154
121	0x3db2d7da	0.08732577
122	0xbd3ed812	-0.04659278
123	0xbe28e876	-0.16494927
124	0xbe134ea8	-0.14385474
125	0xbe3fa178	-0.18713939
126	0x3d65ce4f	0.056104954
127	0x3d24a188	0.04019311
128	0xbe146d1c	-0.14494747
129	0xbd309070	-0.043106496
130	0x3d5d3c2f	0.054012474
131	0xbd94a79f	-0.07258534
132	0x3e0a853a	0.13527384
133	0xbd445ae1	-0.04793823
134	0x3dc9103b	0.09817549
135	0x3ebdba6f	0.370563
136	0x3e831c8d	0.2560772
137	0x3e21460d	0.15749379
138	0xbd0633cb	-0.032764237
139	0xbe2f286c	-0.17105263
140	0xbb09ccad	-0.0021026537
141	0xbc4c590b	-0.012472401
142	0xbba73540	-0.0051027834
143	0xbd562781	-0.052283768
144	0xbddd03a6	-0.107917115
145	0x3d00bf2b	0.031432312
146	0x3da561cb	0.08075293
147	0x3cda359b	0.02663689
148	0xbb0be7b2	-0.0021347818
149	0x3d9db7d6	0.077010795
150	0x3d0bc709	0.03412536
151	0x3ece95e8	0.40348744
152	0x3df456b0	0.11930597
153	0x3ca6e5ff	0.020373343
154	0xbe1f6edd	-0.15569635
155	0xbe2fb909	-0.17160429
156	0xbe4533cc	-0.1925804
157	0x3dd4aab4	0.103841215
158	0x3d5af4aa	0.053455986
159	0x3cd797eb	0.026317557
160	0xbe5b5730	-0.21419978
161	0xbdb7ef57	-0.08981197
162	0xbd5e0770	-0.05420631
163	0xbd3302de	-0.043703906
164	0x3d7b7b08	0.06139663
165	0xbda5f469	-0.08103258
166	0xbe1f00c2	-0.15527633
167	0x3ed347bd	0.4126567
168	0x3e13a0d5	0.14416821
169	0x3ac46b02	0.0014985504
170	0xbdbf9271	-0.09354103
171	0xbecea4bc	-0.40360057
172	0xbe46e7ac	-0.19424313
173	0x3e0a3bb1	0.13499333
174	0xbe2f7bde	-0.17137095
175	0xbd6b49f8	-0.05744359
176	0x3cd4c409	0.025972383
177	0x3d94beef	0.0726298
178	0xbe3f4a80	-0.18680763
179	0x3e021df4	0.12706739
180	0xbded9d24	-0.11602238
181	0x3cad0a6b	0.021123132
182	0x3cc98479	0.0245993
183	0x3ec4d1c5	0.3844129
184	0x3e193dec	0.14965028
185	0x3e100ac3	0.14066605
186	0x3d443b96	0.047908388
187	0xbe436bba	-0.19084063
188	0x3e008980	0.12552452
189	0x3e2a3713	0.16622572
190	0x3d1a3c36	0.037655078
191	0xbdaa6c88	-0.08321482
192	0xbdf66217	-0.12030428
193	0xbda89760	-0.082319975
194	0x3d4ff563	0.05077113
195	0xbde05049	-0.10952813
196	0x3d200ca4	0.039074555
197	0x3e670390	0.22559953
198	0xbc215e69	-0.009849169
199	0x3e64dfaa	0.22350946
200	0x3ea053d4	0.31313956
201	0x3d144409	0.036197696
202	0xbe21c993	-0.1579955
203	0xbdc3adb0	-0.09554613
204	0xbe15c9a0	-0.14627695
205	0xbcd63c46	-0.026151787
206	0xbe485925	-0.19565256
207	0x3e20907e	0.1568012
208	0x3d5341cd	0.051576424
209	0xbddb1391	-0.10697091
210	0x3eb2c164	0.3491317
211	0xbdef63dc	-0.116889685
212	0x3d530b4a	0.051524438
213	0x3e12877e	0.14309499
214	0xbc166185	-0.009178524
215	0x3e04dcbd	0.1297483
216	0x3e32674e	0.1742222
217	0x3e6636c4	0.22481829
218	0xbe07c959	-0.13260402
219	0x3c51b103	0.012798551
220	0x3e0f1e14	0.13976318
221	0xbcdd7afd	-0.027036184
222	0xbd58c563	-0.052922618
223	0x3e8a67df	0.27032372
224	0x3d147141	0.03624082
225	0xbc1f663f	-0.009728967
226	0x3e8bae8c	0.27281606
227	0xbd57bd1c	-0.052670583
228	0x3e6a4b21	0.22880222
229	0xbe79882a	-0.24368349
230	0xbe4dd031	-0.2009895
231	0x3e07f5d0	0.13277364
232	0xbd884332	-0.066534415
233	0x3c910883	0.017704254
234	0x3f008731	0.50206286
235	0x3ea93da7	0.3305485
236	0xbcda32e1	-0.02663559
237	0xbdb01b3e	-0.08598946
238	0x3ddbe4fd	0.107370354
239	0x3e47830e	0.19483587
240	0x3d440e4b	0.047865193
241	0x3e51897e	0.20462605
242	0xbe9f9618	-0.311692
243	0xbd9b29c9	-0.07576329
244	0xbce09ffb	-0.027420035
245	0xbe1b035b	-0.15137999
246	0xbd874853	-0.066055916
247	0x3e77f0c5	0.2421294
248	0xbc6e30f8	-0.014538042
249	0x3e8262a1	0.25465873
250	0x3d863432	0.06552924
251	0x3e4dbd55	0.20091756
252	0xbe4898f4	-0.19589597
253	0xbe90baba	-0.2826746
254	0x3e5875cf	0.2113869
255	0xbea37b30	-0.31929922

sequential/dense_1/MatMul f4 [4, 16]
0	0x3cd32851	0.02577606
1	0xbdea16e6	-0.11430149
2	0x3ecc6948	0.39924073
3	0x3e0d113c	0.13776106
4	0xbed0eb56	-0.40804547
5	0x3d2d5abb	0.042322855
6	0xbe928c83	-0.28622827
7	0xbed3a7b3	-0.41338882
8	0x3f110536	0.56648576
9	0xbebd685d	-0.36993685
10	0xbf00760b	-0.5018012
11	0xbe82d034	-0.2554947
12	0xbcef0906	-0.029179107
13	0x3e30e7bc	0.172759
14	0x3e83080f	0.25592086
15	0xbec6e922	-0.3884974
16	0x3eeb5894	0.45966017
17	0x3e9d35e1	0.3070517
18	0xbecea55a	-0.40360528
19	0x3e62a459	0.22133006
20	0xbdc8f20a	-0.0981179
21	0x3ddcfc57	0.107903175
22	0x3e4d5723	0.20052771
23	0x3ee79d61	0.45237258
24	0x3e6b790d	0.22995396
25	0xbed2d0d0	-0.41174936
26	0x3e9f632b	0.31130347
27	0x3f11b129	0.5691095
28	0xbeac65d3	-0.33671436
29	0xbedc9076	-0.43078965
30	0x3ea942a5	0.33058658
31	0x3eee90ca	0.4659484
32	0x3e929da0	0.28635883
33	0xbf8e2b0e	-1.1106889
34	0xbfb0dd2c	-1.3817496
35	0xbe2b010a	-0.16699615
36	0xbf10b779	-0.5652996
37	0xbf7c923b	-0.9866063
38	0x3d87b091	0.06625474
39	0xbf03cc6d	-0.51483804
40	0xbf0bb6a8	-0.54575586
41	0x3ec8e780	0.3923912
42	0x3e3fcc88	0.18730366
43	0x3e46b94d	0.19406624
44	0xbe900f35	-0.28136602
45	0x3eb81bb5	0.3595864
46	0xc005a5b2	-2.0882382
47	0x3d3c0db4	0.045911506
48	0x3eb6358e	0.35587734
49	0xbde61670	-0.11234748
50	0xbe836225	-0.25660816
51	0xbf427638	-0.7596164
52	0x3da47d71	0.080317385
53	0xbfde241e	-1.7354772
54	0x3e6e919a	0.2329773
55	0xbea7e513	-0.32791957
56	0xbe5212d4	-0.20514995
57	0xbea6434c	-0.32473218
58	0xbf4a25b0	-0.78963757
59	0x3ece9b3b	0.40352806
60	0xbfabba90	-1.3416309
61	0x3e99f85d	0.300723
62	0xbf9441e4	-1.1582608
63	0xbf0cd7ee	-0.5501698
