train/model_quantized.tflite (tflite, 9928 bytes, 8 tensors)

sequential/dense_1/MatMul f4 [4, 16]
0	0xbea675f4	-0.32511866
1	0x3eb3009d	0.34961405
2	0x3e5ee266	0.21766052
3	0x3ed7e138	0.42164016
4	0x3ef6ae7a	0.4817999
5	0x3cc122f7	0.023576243
6	0xbca1f435	-0.019769767
7	0xbef4d5ea	-0.47819453
8	0x3cd0c99d	0.025486762
9	0xbd9a85da	-0.075450614
10	0xbeabebbf	-0.33578297
11	0xbebfa3fb	-0.37429795
12	0xbd354d07	-0.044262912
13	0xbeae58b8	-0.34052062
14	0xbebc0dce	-0.36729282
15	0xbdd9a253	-0.10626664
16	0xbeb8ca37	-0.36091778
17	0xbfc11c64	-1.5086789
18	0xbfa8be8f	-1.3183154
19	0x3ee0b372	0.43886906
20	0x3e804fed	0.2506098
21	0xbdf77fcf	-0.120849244
22	0xbf32a090	-0.6977625
23	0xbeb3fda9	-0.35154465
24	0xbf0d296e	-0.5514134
25	0xbf031d16	-0.51216257
26	0xbf66f3d8	-0.90215826
27	0x3e8da6aa	0.27666217
28	0xbe9d6cf0	-0.30747175
29	0xbec50274	-0.38478434
30	0xbfaa4406	-1.3302009
31	0x3e9c3f53	0.30517063
32	0xbf41271f	-0.7545032
33	0xbfb5bf35	-1.4198977
34	0xbedd2343	-0.43190965
35	0xbe4170fb	-0.18890755
36	0xbe96aa6c	-0.29426897
37	0xbe9c78f7	-0.3056104
38	0x3d5c6a25	0.053812165
39	0x3ddf7155	0.10910288
40	0xbef1c792	-0.47222573
41	0x3e995969	0.29951027
42	0x3e9bb2b9	0.30409792
43	0x3ec7f277	0.39052173
44	0xbee8b1d6	-0.45448178
45	0xbf008b26	-0.50212324
46	0xbe982b52	-0.2972055
47	0x3e5a2f4a	0.21307102
48	0xbdbe3a28	-0.09288436
49	0x3e64ee69	0.22356571
50	0xbe9ee5c1	-0.31034663
51	0xbde58a93	-0.112080716
52	0xbea60fef	-0.3243403
53	0x3e860e3c	0.26182735
54	0x3f08f065	0.5349181
55	0xbe80311f	-0.25037476
56	0xbeba7176	-0.3641469
57	0x3df9e9f6	0.12202828
58	0x3e39839a	0.18116608
59	0x3f0e04ae	0.5547589
60	0xbecbc91e	-0.39801878
61	0x3de868f3	0.113481425
62	0xbdb73a48	-0.08946663
63	0x3f09b465	0.53790885

sequential/conv2d/BiasAdd/ReadVariableOp f4 [8]
0	0xbc7c144f	-0.015385701
1	0xbeb294ce	-0.34879154
2	0xbec4a272	-0.38405186
3	0x3d381d4a	0.044949807
4	0xbed002db	-0.4062718
5	0xbd6f892b	-0.058480423
6	0xbef6b0f0	-0.48181868
7	0xbce64c09	-0.028112428

sequential/conv2d_1/BiasAdd/ReadVariableOp f4 [16]
0	0x3dd8d86b	0.105881535
1	0xbd962807	-0.07331853
2	0xbe5beab6	-0.21476254
3	0x3e978918	0.29596782
4	0xbedbdad9	-0.42940405
5	0xbeba683f	-0.36407658
6	0xbe12da29	-0.14341034
7	0xbeeac620	-0.45854282
8	0xbcf9770e	-0.030452278
9	0xbe1e2a0a	-0.15445724
10	0xbe937f9e	-0.28808302
11	0xbed4995b	-0.4152325
12	0xba89c471	-0.0010510815
13	0xbe12893d	-0.14310165
14	0x3ccbdaa4	0.02488453
15	0xbf048dd2	-0.517789

sequential/conv2d/Conv2D f4 [8, 4, 3, 1]
0	0x3c027e5d	0.007964698
1	0xbe22ceea	-0.15899244
2	0x3e31c612	0.17360714
3	0x3e385e6f	0.18004774
4	0xbe49d2af	-0.19709276
5	0x3c89efe1	0.016838016
6	0xbe01efae	-0.12689087
7	0x3db9d34f	0.09073507
8	0xbdc923f7	-0.09821313
9	0xbe2056b2	-0.15658072
10	0x3e653084	0.22381788
11	0xbd3265c8	-0.043554097
12	0x3deefed8	0.11669701
13	0xbd058cf4	-0.032605127
14	0xbe13940e	-0.14411947
15	0x3da71c8e	0.08159743
16	0xbd428a10	-0.047494948
17	0x3c87f779	0.016597496
18	0xbc84faa9	-0.016232805
19	0x3e4bd314	0.19904739
20	0x3e101cd3	0.14073496
21	0xbcff9aae	-0.031201687
22	0xbe2f24ba	-0.17103854
23	0xbe05d965	-0.1307121
24	0xbd1027d7	-0.035194244
25	0xbd9ebe34	-0.07751122
26	0xbd5efe8b	-0.05444197
27	0x3e1306fc	0.14358133
28	0x3dfcd126	0.123445794
29	0x3d74bcec	0.059750482
30	0x3d9b426b	0.075810276
31	0xbe09f9e9	-0.1347424
32	0x3d362910	0.044472754
33	0x3d70c4e4	0.05878152
34	0x3d8cac6b	0.068688236
35	0xbe2eade2	-0.17058519
36	0xbcc23029	-0.023704605
37	0x3e38e7d9	0.18057193
38	0xbd9e696d	-0.07734952
39	0x3e39327e	0.18085667
40	0xbdabdcd0	-0.08391726
41	0xbe563f0a	-0.20922485
42	0x3cebe349	0.028794901
43	0xbe1a3037	-0.15057455
44	0x3d85a0b3	0.065247916
45	0x3c6214bc	0.013798889
46	0xbd1ca3f1	-0.038242284
47	0x3d1bea5e	0.038065307
48	0x3cc61b9f	0.024183093
49	0xbe228f50	-0.15874982
50	0x3de42d9e	0.11141513
51	0x3d9382b0	0.07202661
52	0x3d67541e	0.056476705
53	0x3e4f0e48	0.20220292
54	0x3e770c31	0.24125744
55	0xbe0c285c	-0.13687271
56	0xbdfe1d91	-0.12407983
57	0x3d3e0f36	0.046401225
58	0xbd4db2d1	-0.05021936
59	0xbe3738aa	-0.1789271
60	0x3e5310b9	0.20611848
61	0xbcdd4034	-0.027008153
62	0x3d8ec49a	0.069710925
63	0xbdcbc5ab	-0.099498115
64	0x3d1de585	0.038548965
65	0x3e220c77	0.15825067
66	0xbbcbea1e	-0.0062229773
67	0xbde1ffe8	-0.11035138
68	0xbdbf48bf	-0.09340047
69	0x3c8d1cf5	0.017225722
70	0xbdf132fd	-0.11777303
71	0x3e469524	0.1939283
72	0x3dc20122	0.09472872
73	0x3c50ae9c	0.012736943
74	0xbe059744	-0.13045985
75	0x3dd8a1bd	0.10577724
76	0xbd40ba32	-0.04705257
77	0x3d9a2950	0.07527411
78	0x3df0a4e7	0.117502026
79	0xbda18c34	-0.0788807
80	0xbe0560f9	-0.13025273
81	0x3cdf0261	0.027222814
82	0xbe07a71c	-0.13247341
83	0x3e319f87	0.17346011
84	0x3dbe07ed	0.092788555
85	0xbe012355	-0.12611134
86	0xbe78ce16	-0.24297366
87	0xbe52bf51	-0.20580794
88	0xbe7086d9	-0.2348894
89	0x3e17f195	0.1483825
90	0xba5ecf00	-0.00084994733
91	0x3e3541a6	0.17700824
92	0x3e26b74e	0.16280863
93	0x3d2506d1	0.040289704
94	0x3d9cf9e2	0.07664849
95	0x3e24b919	0.16086234

sequential/conv2d_1/Conv2D f4 [16, 4, 1, 8]
0	0xbe5c9a19	-0.21543159
1	0x3d3d1660	0.046163917
2	0xbe6dfce3	-0.23241
3	0xbe51c470	-0.20485091
4	0xbe019477	-0.12654291
5	0x3e57fdd0	0.21092916
6	0x3e4ddc5b	0.2010359
7	0xbda1bbec	-0.078971714
8	0xbe2c6259	-0.16834392
9	0x3da59dd5	0.08086745
10	0xbc8ccc76	-0.017187338
11	0x3cb451f9	0.022011744
12	0x3e1834b2	0.14863852
13	0x3d6b2826	0.057411335
14	0xbe5089dc	-0.20365089
15	0x3e627096	0.2211326
16	0xbe2aa458	-0.16664255
17	0xbd93719c	-0.07199404
18	0xbcf4479a	-0.029819299
19	0x3dbada8d	0.091237165
20	0xbd791e32	-0.060819812
21	0xbe1771fb	-0.14789574
22	0x3dc4fd6e	0.096186504
23	0xbe55fc03	-0.20896916
24	0xbda3132b	-0.079626404
25	0xbe1de809	-0.15420546
26	0x3ca0b8b3	0.019619321
27	0xbd97bdf3	-0.07409277
28	0xbe838b53	-0.25692233
29	0x3e826e4b	0.25474772
30	0xbe3a4aa6	-0.18192539
31	0x3d82a5b4	0.063792616
32	0x3e465e72	0.19371966
33	0xbcbdf6ca	-0.023188967
34	0xbe618525	-0.22023447
35	0x3dcf2fdf	0.101165526
36	0xbe62973d	-0.22128005
37	0xbe6d122a	-0.2315146
38	0x3d5a7551	0.053334538
39	0x3d80b8e8	0.06285268
40	0xbda0d710	-0.0785352
41	0x3c3f43d2	0.0116738845
42	0xbd811228	-0.06302291
43	0x3df9edd4	0.12203565
44	0x3e2b5684	0.16732222
45	0xbdb7815a	-0.08960219
46	0x3cd46cad	0.025930727
47	0xbe2ddbdb	-0.169784
48	0xbe11ac11	-0.14225794
49	0x3d364c0d	0.04450612
50	0xbdeeb93d	-0.11656425
51	0xbdc154e9	-0.094400235
52	0xbe1587c3	-0.1460257
53	0xbc816acb	-0.015797993
54	0x3dac60c9	0.08416898
55	0x3dc5fcb7	0.09667342
56	0x3b65a02a	0.0035038092
57	0xbd0e0fc9	-0.034683023
58	0x3e438edc	0.19097465
59	0x3d1efb30	0.03881377
60	0x3e0299be	0.1275396
61	0xbe66f4d6	-0.22554335
62	0xbe760385	-0.2402478
63	0xbe75998d	-0.23984356
64	0xbe1af128	-0.15131056
65	0x3d004dfd	0.031324375
66	0x3d26c264	0.04071273
67	0xbd9f1a9d	-0.07768748
68	0x3e1d458f	0.15358566
69	0x3cd9ed63	0.026602453
70	0xbe3d5dd4	-0.18492824
71	0xbd7b78d4	-0.061394528
72	0x3e40e420	0.18837023
73	0xbc9dd6f3	-0.019267535
74	0xbe58a172	-0.21155336
75	0xbe4dbdf7	-0.20091997
76	0xbd8aded0	-0.06780779
77	0xbdcf373c	-0.10117957
78	0x3e5141d5	0.20435269
79	0x3e190b84	0.14945799
80	0x3c908ddd	0.01764577
81	0xbe332e69	-0.17498173
82	0xbc35cf54	-0.011096794
83	0xbd6e0ee6	-0.058119677
84	0x3df1e9a9	0.11812145
85	0xbe3e1973	-0.18564396
86	0xbe862711	-0.2620168
87	0xbd40d62d	-0.047079254
88	0x3e36a115	0.17834885
89	0xbd9a3834	-0.07530251
90	0x3dc0d28e	0.0941516
91	0xbe7524c7	-0.2393981
92	0xbd821452	-0.06351532
93	0x3e1e5af4	0.15464383
94	0x3e081305	0.13288505
95	0xbcdf1929	-0.027233677
96	0xbdc39ae4	-0.095510274
97	0xbe1d448d	-0.15358181
98	0x3dc0a3d4	0.09406248
99	0xbe13ce35	-0.1443413
100	0xbd72a669	-0.059240732
101	0x3ddcd779	0.10783286
102	0xbe207253	-0.15668611
103	0xbdbd2b0a	-0.09236725
104	0x3dd8a70d	0.105787374
105	0x3cd01416	0.025400203
106	0xbd20056d	-0.039067674
107	0xbe199679	-0.14998807
108	0xbdb3ac47	-0.08773094
109	0x3e86624e	0.26246876
110	0xbe97821a	-0.29591447
111	0x3e0b3223	0.13593344
112	0xbe1e9120	-0.15485048
113	0x3e345dd3	0.17613916
114	0xbb88abfd	-0.004170893
115	0xba44159c	-0.00074800267
116	0xbdf20f2d	-0.11819301
117	0xbe2ea8a7	-0.17056523
118	0xbe9c7381	-0.30556872
119	0xbcdb20bd	-0.02674901
120	0xbd57d599	-0.052693937
121	0xbe7bd6ff	-0.24593733
122	0x3d826dad	0.06368575
123	0x3e4a1daa	0.19737878
124	0xbeb62ee0	-0.35582638
125	0x3d6779a3	0.056512486
126	0xbdbb8d43	-0.09157803
127	0xbdd44eca	-0.1036659
128	0x3dd5a29b	0.10431405
129	0x3e1428d9	0.14468707
130	0x3d847ecf	0.06469499
131	0xbe4600a6	-0.19336185
132	0x3e0aa62b	0.1353995
133	0x3e44c5c2	0.19216064
134	0xbe572204	-0.2100907
135	0x3cfaefe2	0.030631963
136	0xbd148ebe	-0.036268942
137	0xbe666f4a	-0.22503391
138	0xbe554ac2	-0.20829299
139	0xbe71e408	-0.23622143
140	0x3d9bcc79	0.076073594
141	0x3dd55cff	0.10418128
142	0x3e26257c	0.16225237
143	0xbdf5b2d2	-0.11996998
144	0xbcf023b9	-0.029313909
145	0xbde74880	-0.11293125
146	0xbc904941	-0.017613055
147	0xbe8f3844	-0.27972615
148	0xbcb6195c	-0.02222889
149	0xbe052b67	-0.13004838
150	0xbc80bc54	-0.015714802
151	0x3dde7d8a	0.108637884
152	0x3db83fed	0.08996568
153	0xbe04b355	-0.12959035
154	0x3e009fe1	0.12560989
155	0x3df05553	0.11735024
156	0xbe6bddb5	-0.23033793
157	0xbe31eff2	-0.17376688
158	0x3e2ee02f	0.17077707
159	0xbdab2dd0	-0.083583474
160	0xbe4f0c26	-0.20219478
161	0xbe26cf12	-0.16289929
162	0xbe1ad91a	-0.1512188
163	0xbe6e7275	-0.2328585
164	0xbd1d1a25	-0.03835501
165	0xbe3cd9cd	-0.1844246
166	0xbe00e9c1	-0.1258917
167	0x3d9199f5	0.07109443
168	0x3e1c9621	0.15291645
169	0xbe047b3c	-0.12937635
170	0x3e4b9958	0.19882715
171	0xbc69f450	-0.01427944
172	0x3e14615b	0.14490263
173	0xbe7f9d38	-0.24962318
174	0x3c95d36b	0.018289289
175	0x3e266552	0.16249588
176	0xbddfb8f8	-0.10923952
177	0x3e006329	0.12537827
178	0x3de641e1	0.11243034
179	0x3e1fff68	0.15624774
180	0xbcf78e09	-0.030219095
181	0xbe68b609	-0.22725691
182	0x3de36ae1	0.1110437
183	0xbdb98563	-0.090586446
184	0x3db8dce8	0.090265095
185	0xbe800557	-0.25004074
186	0xbe413ac6	-0.18870077
187	0x3ddd6dfc	0.108119935
188	0xbe391ad0	-0.18076634
189	0x3e3fd2ee	0.18732807
190	0x3e06602d	0.13122626
191	0xbda1eca3	-0.07906463
192	0xbdbdbc2b	-0.09264406
193	0xbdd956f3	-0.10612287
194	0x3dd84b76	0.10561268
195	0x3e7f474d	0.24929543
196	0xbdee3015	-0.11630265
197	0xbe4d833a	-0.2006959
198	0x3d400a7f	0.04688501
199	0x3e6e0215	0.23242982
200	0x3e40541e	0.18782088
201	0x3dfeb4cb	0.12436827
202	0xbd54135f	-0.051776286
203	0xbc7e8196	-0.015533825
204	0xbc31364f	-0.010816171
205	0xbe4b3408	-0.19844067
206	0x3e23c2a6	0.15992221
207	0xbcb11dbc	-0.021620624
208	0xbe68ff1b	-0.22753565
209	0xbe736cf6	-0.23772034
210	0xbd74e1db	-0.059785705
211	0xbe1c2fe3	-0.15252642
212	0xbcd52e42	-0.026023034
213	0x3dad71fc	0.084690064
214	0xbe1c6b67	-0.15275346
215	0xbe680bb3	-0.22660713
216	0xbc6dd4c0	-0.014516056
217	0xbcd85051	-0.026405485
218	0x3e2b105e	0.16705462
219	0xbdca1713	-0.09867682
220	0xbe334203	-0.1750565
221	0x3dd7bb79	0.105338044
222	0xbe87ffd8	-0.2656238
223	0xbd238c7c	-0.0399289
224	0x3dc0ac70	0.0940789
225	0x3d640ba7	0.055675175
226	0xbde35cbc	-0.11101672
227	0xbe0187d9	-0.12649478
228	0x3bc63427	0.0060486975
229	0x3c61d1ba	0.013782913
230	0x3e152dd5	0.14568265
231	0xbd08245c	-0.0332378
232	0xbda9f1c5	-0.08298067
233	0x3d1ffcd6	0.039059483
234	0x3e06196e	0.13095638
235	0xbe07f927	-0.13278638
236	0xbd51e234	-0.051241115
237	0x3e43fc9b	0.1913933
238	0xbe6fe599	-0.23427428
239	0x3d773e7a	0.060362317
240	0x3d8460c5	0.0646377
241	0x3dc9d9b5	0.098559774
242	0xbe59f80c	-0.21286029
243	0x3d4abf43	0.049498808
244	0xbdfe5029	-0.12417633
245	0x3e1d4aeb	0.1536061
246	0xbe19b396	-0.15009913
247	0x3bd1b7ce	0.006400085
248	0xbd5693be	-0.05238699
249	0x3db13621	0.086529024
250	0x3d5a2805	0.05326082
251	0xbd6b3320	-0.057421803
252	0xbc6c4c13	-0.014422434
253	0xbd86c826	-0.06581144
254	0x3c9498ca	0.018139262
255	0xbcda7c98	-0.026670739

sequential/dense/BiasAdd/ReadVariableOp f4 [16]
0	0xbe281fd9	-0.16418399
1	0x3f25d40b	0.64776677
2	0x3f09211a	0.53566134
3	0x3ec6b321	0.3880854
4	0x3ed48a82	0.41511923
5	0xbe88c2ff	-0.2671127
6	0xbed50d9c	-0.41611946
7	0xbea7f435	-0.32803503
8	0x3f23ed67	0.6403412
9	0xbf046321	-0.5171376
10	0xbe116026	-0.14196834
11	0xbec45bea	-0.38351375
12	0x3ed95955	0.42450967
13	0xbecfb17b	-0.40565094
14	0xbeb7af8f	-0.35876128
15	0xbed9cbdf	-0.42538354

sequential/dense_1/BiasAdd/ReadVariableOp f4 [4]
0	0x3f200280	0.62503815
1	0xbf9d7462	-1.2301142
2	0xbf38816c	-0.7207248
3	0xbec3ce0f	-0.38243148

sequential/dense/MatMul i1 [16, 224] scale=0.0036119851 zero_point=0
0	0xe3	-0.10474757
1	0xff	-0.0036119851
2	0x19	0.09029963
3	0x46	0.25283897
4	0xf3	-0.046955805
5	0x07	0.025283895
6	0x1a	0.09391161
7	0x27	0.14086743
8	0xf3	-0.046955805
9	0x07	0.025283895
10	0xf0	-0.057791762
11	0xe1	-0.11197154
12	0x05	0.018059926
13	0x08	0.028895881
14	0x4a	0.2672869
15	0x03	0.010835955
16	0x32	0.18059926
17	0x05	0.018059926
18	0xed	-0.068627715
19	0x3c	0.2167191
20	0x34	0.18782322
21	0xf4	-0.04334382
22	0xea	-0.079463676
23	0x09	0.032507867
24	0x2a	0.15170337
25	0xc4	-0.2167191
26	0xff	-0.0036119851
27	0xf5	-0.039731838
28	0xd0	-0.17337528
29	0xeb	-0.07585169
30	0x2e	0.16615131
31	0xf6	-0.036119852
32	0xde	-0.122807495
33	0xed	-0.068627715
34	0xd9	-0.14086743
35	0xeb	-0.07585169
36	0x13	0.068627715
37	0xff	-0.0036119851
38	0x1c	0.10113558
39	0x2b	0.15531535
40	0xfd	-0.010835955
41	0x1f	0.11197154
42	0xd4	-0.15892735
43	0x0d	0.046955805
44	0x0c	0.04334382
45	0x1f	0.11197154
46	0x16	0.079463676
47	0x2b	0.15531535
48	0xc3	-0.22033109
49	0xd4	-0.15892735
50	0x2b	0.15531535
51	0xf5	-0.039731838
52	0x24	0.13003147
53	0x2c	0.15892735
54	0x09	0.032507867
55	0xf5	-0.039731838
56	0x21	0.119195506
57	0xe3	-0.10474757
58	0xf3	-0.046955805
59	0xfc	-0.0144479405
60	0x07	0.025283895
61	0x23	0.12641948
62	0xf9	-0.025283895
63	0x01	0.0036119851
64	0x00	0.0
65	0x10	0.057791762
66	0xf6	-0.036119852
67	0xba	-0.25283897
68	0xf5	-0.039731838
69	0x01	0.0036119851
70	0xf5	-0.039731838
71	0xd7	-0.14809139
72	0xce	-0.18059926
73	0x05	0.018059926
74	0xef	-0.061403748
75	0x19	0.09029963
76	0xf1	-0.054179776
77	0xd0	-0.17337528
78	0xd1	-0.1697633
79	0xfc	-0.0144479405
80	0x1b	0.0975236
81	0xf1	-0.054179776
82	0x35	0.19143522
83	0xf2	-0.05056779
84	0xfb	-0.018059926
85	0x30	0.17337528
86	0xf5	-0.039731838
87	0xee	-0.06501573
88	0x1a	0.09391161
89	0xf6	-0.036119852
90	0x0e	0.05056779
91	0xff	-0.0036119851
92	0xf9	-0.025283895
93	0xe4	-0.10113558
94	0xd0	-0.17337528
95	0x38	0.20227116
96	0x3a	0.20949514
97	0xf8	-0.028895881
98	0x12	0.06501573
99	0xd2	-0.16615131
100	0x2a	0.15170337
101	0x07	0.025283895
102	0x2d	0.16253933
103	0x17	0.08307566
104	0x06	0.02167191
105	0x03	0.010835955
106	0xeb	-0.07585169
107	0xed	-0.068627715
108	0x26	0.13725543
109	0xe4	-0.10113558
110	0x15	0.07585169
111	0xf8	-0.028895881
112	0x18	0.08668764
113	0xe4	-0.10113558
114	0xfc	-0.0144479405
115	0xf3	-0.046955805
116	0xef	-0.061403748
117	0x26	0.13725543
118	0x0c	0.04334382
119	0x0a	0.036119852
120	0x18	0.08668764
121	0x0e	0.05056779
122	0x38	0.20227116
123	0x30	0.17337528
124	0x26	0.13725543
125	0xd8	-0.14447941
126	0x1f	0.11197154
127	0x21	0.119195506
128	0x20	0.115583524
129	0xc8	-0.20227116
130	0x1a	0.09391161
131	0x1c	0.10113558
132	0x1e	0.10835955
133	0x3f	0.22755507
134	0xe9	-0.08307566
135	0x07	0.025283895
136	0xf7	-0.032507867
137	0x01	0.0036119851
138	0xf7	-0.032507867
139	0xfb	-0.018059926
140	0x26	0.13725543
141	0x25	0.13364345
142	0x31	0.17698728
143	0x3c	0.2167191
144	0x0c	0.04334382
145	0x22	0.122807495
146	0x34	0.18782322
147	0x51	0.2925708
148	0x39	0.20588315
149	0x0d	0.046955805
150	0xe6	-0.09391161
151	0xe5	-0.0975236
152	0xfa	-0.02167191
153	0x0d	0.046955805
154	0xe5	-0.0975236
155	0x0c	0.04334382
156	0x0e	0.05056779
157	0xf7	-0.032507867
158	0xec	-0.072239704
159	0x1b	0.0975236
160	0x25	0.13364345
161	0xfe	-0.0072239703
162	0x04	0.0144479405
163	0xea	-0.079463676
164	0x22	0.122807495
165	0x34	0.18782322
166	0xc7	-0.20588315
167	0xf8	-0.028895881
168	0x2f	0.1697633
169	0x0d	0.046955805
170	0x01	0.0036119851
171	0x21	0.119195506
172	0x08	0.028895881
173	0x23	0.12641948
174	0xee	-0.06501573
175	0x2e	0.16615131
176	0x52	0.29618278
177	0x22	0.122807495
178	0x2f	0.1697633
179	0x48	0.26006293
180	0x2f	0.1697633
181	0xe8	-0.08668764
182	0xee	-0.06501573
183	0x0e	0.05056779
184	0x0b	0.039731838
185	0x0b	0.039731838
186	0x09	0.032507867
187	0x04	0.0144479405
188	0x18	0.08668764
189	0xd8	-0.14447941
190	0x38	0.20227116
191	0x00	0.0
192	0x37	0.19865918
193	0x1a	0.09391161
194	0x31	0.17698728
195	0x6a	0.38287044
196	0x24	0.13003147
197	0xda	-0.13725543
198	0x12	0.06501573
199	0x38	0.20227116
200	0x0f	0.054179776
201	0x0c	0.04334382
202	0xe8	-0.08668764
203	0x0b	0.039731838
204	0x04	0.0144479405
205	0x1c	0.10113558
206	0x3c	0.2167191
207	0x1e	0.10835955
208	0x48	0.26006293
209	0xfe	-0.0072239703
210	0xf9	-0.025283895
211	0x59	0.32146668
212	0x0c	0.04334382
213	0xf6	-0.036119852
214	0x3e	0.22394308
215	0x0b	0.039731838
216	0x09	0.032507867
217	0xfe	-0.0072239703
218	0x22	0.122807495
219	0x1d	0.10474757
220	0x28	0.14447941
221	0x1e	0.10835955
222	0x45	0.24922697
223	0x1f	0.11197154
224	0xdd	-0.12641948
225	0x2e	0.16615131
226	0x0f	0.054179776
227	0x1b	0.0975236
228	0xfb	-0.018059926
229	0xe9	-0.08307566
230	0x1d	0.10474757
231	0xe1	-0.11197154
232	0xde	-0.122807495
233	0x28	0.14447941
234	0xdf	-0.119195506
235	0x07	0.025283895
236	0xf8	-0.028895881
237	0x19	0.09029963
238	0xfe	-0.0072239703
239	0xf6	-0.036119852
240	0xef	-0.061403748
241	0x30	0.17337528
242	0xfb	-0.018059926
243	0x46	0.25283897
244	0xdd	-0.12641948
245	0x0a	0.036119852
246	0x11	0.061403748
247	0xe8	-0.08668764
248	0x31	0.17698728
249	0xef	-0.061403748
250	0xed	-0.068627715
251	0xd8	-0.14447941
252	0x2b	0.15531535
253	0xd8	-0.14447941
254	0x08	0.028895881
255	0x00	0.0
