train/model.tflite (tflite, 20604 bytes, 8 tensors)

sequential/conv2d/BiasAdd/ReadVariableOp f4 [8]
000000 4f 14 7c bc ce 94 b2 be 72 a2 c4 be 4a 1d 38 3d
       -0.015385701 -0.34879154 -0.38405186 0.044949807
000010 db 02 d0 be 2b 89 6f bd f0 b0 f6 be 09 4c e6 bc
       -0.4062718 -0.058480423 -0.48181868 -0.028112428

sequential/conv2d_1/BiasAdd/ReadVariableOp f4 [16]
000000 6b d8 d8 3d 07 28 96 bd b6 ea 5b be 18 89 97 3e
       0.105881535 -0.07331853 -0.21476254 0.29596782
000010 d9 da db be 3f 68 ba be 29 da 12 be 20 c6 ea be
       -0.42940405 -0.36407658 -0.14341034 -0.45854282
000020 0e 77 f9 bc 0a 2a 1e be 9e 7f 93 be 5b 99 d4 be
       -0.030452278 -0.15445724 -0.28808302 -0.4152325
000030 71 c4 89 ba 3d 89 12 be a4 da cb 3c d2 8d 04 bf
       -0.0010510815 -0.14310165 0.02488453 -0.517789

sequential/conv2d/Conv2D f4 [8, 4, 3, 1]
000000 5d 7e 02 3c ea ce 22 be 12 c6 31 3e 6f 5e 38 3e
       0.007964698 -0.15899244 0.17360714 0.18004774
000010 af d2 49 be e1 ef 89 3c ae ef 01 be 4f d3 b9 3d
       -0.19709276 0.016838016 -0.12689087 0.09073507
000020 f7 23 c9 bd b2 56 20 be 84 30 65 3e c8 65 32 bd
       -0.09821313 -0.15658072 0.22381788 -0.043554097
000030 d8 fe ee 3d f4 8c 05 bd 0e 94 13 be 8e 1c a7 3d
       0.11669701 -0.032605127 -0.14411947 0.08159743
000040 10 8a 42 bd 79 f7 87 3c a9 fa 84 bc 14 d3 4b 3e
       -0.047494948 0.016597496 -0.016232805 0.19904739
000050 d3 1c 10 3e ae 9a ff bc ba 24 2f be 65 d9 05 be
       0.14073496 -0.031201687 -0.17103854 -0.1307121
000060 d7 27 10 bd 34 be 9e bd 8b fe 5e bd fc 06 13 3e
       -0.035194244 -0.07751122 -0.05444197 0.14358133
000070 26 d1 fc 3d ec bc 74 3d 6b 42 9b 3d e9 f9 09 be
       0.123445794 0.059750482 0.075810276 -0.1347424
000080 10 29 36 3d e4 c4 70 3d 6b ac 8c 3d e2 ad 2e be
       0.044472754 0.05878152 0.068688236 -0.17058519
000090 29 30 c2 bc d9 e7 38 3e 6d 69 9e bd 7e 32 39 3e
       -0.023704605 0.18057193 -0.07734952 0.18085667
0000a0 d0 dc ab bd 0a 3f 56 be 49 e3 eb 3c 37 30 1a be
       -0.08391726 -0.20922485 0.028794901 -0.15057455
0000b0 b3 a0 85 3d bc 14 62 3c f1 a3 1c bd 5e ea 1b 3d
       0.065247916 0.013798889 -0.038242284 0.038065307
0000c0 9f 1b c6 3c 50 8f 22 be 9e 2d e4 3d b0 82 93 3d
       0.024183093 -0.15874982 0.11141513 0.07202661
0000d0 1e 54 67 3d 48 0e 4f 3e 31 0c 77 3e 5c 28 0c be
       0.056476705 0.20220292 0.24125744 -0.13687271
0000e0 91 1d fe bd 36 0f 3e 3d d1 b2 4d bd aa 38 37 be
       -0.12407983 0.046401225 -0.05021936 -0.1789271
0000f0 b9 10 53 3e 34 40 dd bc 9a c4 8e 3d ab c5 cb bd
       0.20611848 -0.027008153 0.069710925 -0.099498115
000100 85 e5 1d 3d 77 0c 22 3e 1e ea cb bb e8 ff e1 bd
       0.038548965 0.15825067 -0.0062229773 -0.11035138
000110 bf 48 bf bd f5 1c 8d 3c fd 32 f1 bd 24 95 46 3e
       -0.09340047 0.017225722 -0.11777303 0.1939283
000120 22 01 c2 3d 9c ae 50 3c 44 97 05 be bd a1 d8 3d
       0.09472872 0.012736943 -0.13045985 0.10577724
000130 32 ba 40 bd 50 29 9a 3d e7 a4 f0 3d 34 8c a1 bd
       -0.04705257 0.07527411 0.117502026 -0.0788807
000140 f9 60 05 be 61 02 df 3c 1c a7 07 be 87 9f 31 3e
       -0.13025273 0.027222814 -0.13247341 0.17346011
000150 ed 07 be 3d 55 23 01 be 16 ce 78 be 51 bf 52 be
       0.092788555 -0.12611134 -0.24297366 -0.20580794
000160 d9 86 70 be 95 f1 17 3e 00 cf 5e ba a6 41 35 3e
       -0.2348894 0.1483825 -0.00084994733 0.17700824
000170 4e b7 26 3e d1 06 25 3d e2 f9 9c 3d 19 b9 24 3e
       0.16280863 0.040289704 0.07664849 0.16086234

sequential/conv2d_1/Conv2D f4 [16, 4, 1, 8]
000000 19 9a 5c be 60 16 3d 3d e3 fc 6d be 70 c4 51 be
       -0.21543159 0.046163917 -0.23241 -0.20485091
000010 77 94 01 be d0 fd 57 3e 5b dc 4d 3e ec bb a1 bd
       -0.12654291 0.21092916 0.2010359 -0.078971714
000020 59 62 2c be d5 9d a5 3d 76 cc 8c bc f9 51 b4 3c
       -0.16834392 0.08086745 -0.017187338 0.022011744
000030 b2 34 18 3e 26 28 6b 3d dc 89 50 be 96 70 62 3e
       0.14863852 0.057411335 -0.20365089 0.2211326
000040 58 a4 2a be 9c 71 93 bd 9a 47 f4 bc 8d da ba 3d
       -0.16664255 -0.07199404 -0.029819299 0.091237165
000050 32 1e 79 bd fb 71 17 be 6e fd c4 3d 03 fc 55 be
       -0.060819812 -0.14789574 0.096186504 -0.20896916
000060 2b 13 a3 bd 09 e8 1d be b3 b8 a0 3c f3 bd 97 bd
       -0.079626404 -0.15420546 0.019619321 -0.07409277
000070 53 8b 83 be 4b 6e 82 3e a6 4a 3a be b4 a5 82 3d
       -0.25692233 0.25474772 -0.18192539 0.063792616
000080 72 5e 46 3e ca f6 bd bc 25 85 61 be df 2f cf 3d
       0.19371966 -0.023188967 -0.22023447 0.101165526
000090 3d 97 62 be 2a 12 6d be 51 75 5a 3d e8 b8 80 3d
       -0.22128005 -0.2315146 0.053334538 0.06285268
0000a0 10 d7 a0 bd d2 43 3f 3c 28 12 81 bd d4 ed f9 3d
       -0.0785352 0.0116738845 -0.06302291 0.12203565
0000b0 84 56 2b 3e 5a 81 b7 bd ad 6c d4 3c db db 2d be
       0.16732222 -0.08960219 0.025930727 -0.169784
0000c0 11 ac 11 be 0d 4c 36 3d 3d b9 ee bd e9 54 c1 bd
       -0.14225794 0.04450612 -0.11656425 -0.094400235
0000d0 c3 87 15 be cb 6a 81 bc c9 60 ac 3d b7 fc c5 3d
       -0.1460257 -0.015797993 0.08416898 0.09667342
0000e0 2a a0 65 3b c9 0f 0e bd dc 8e 43 3e 30 fb 1e 3d
       0.0035038092 -0.034683023 0.19097465 0.03881377
0000f0 be 99 02 3e d6 f4 66 be 85 03 76 be 8d 99 75 be
       0.1275396 -0.22554335 -0.2402478 -0.23984356
000100 28 f1 1a be fd 4d 00 3d 64 c2 26 3d 9d 1a 9f bd
       -0.15131056 0.031324375 0.04071273 -0.07768748
000110 8f 45 1d 3e 63 ed d9 3c d4 5d 3d be d4 78 7b bd
       0.15358566 0.026602453 -0.18492824 -0.061394528
000120 20 e4 40 3e f3 d6 9d bc 72 a1 58 be f7 bd 4d be
       0.18837023 -0.019267535 -0.21155336 -0.20091997
000130 d0 de 8a bd 3c 37 cf bd d5 41 51 3e 84 0b 19 3e
       -0.06780779 -0.10117957 0.20435269 0.14945799
000140 dd 8d 90 3c 69 2e 33 be 54 cf 35 bc e6 0e 6e bd
       0.01764577 -0.17498173 -0.011096794 -0.058119677
000150 a9 e9 f1 3d 73 19 3e be 11 27 86 be 2d d6 40 bd
       0.11812145 -0.18564396 -0.2620168 -0.047079254
000160 15 a1 36 3e 34 38 9a bd 8e d2 c0 3d c7 24 75 be
       0.17834885 -0.07530251 0.0941516 -0.2393981
000170 52 14 82 bd f4 5a 1e 3e 05 13 08 3e 29 19 df bc
       -0.06351532 0.15464383 0.13288505 -0.027233677
000180 e4 9a c3 bd 8d 44 1d be d4 a3 c0 3d 35 ce 13 be
       -0.095510274 -0.15358181 0.09406248 -0.1443413
000190 69 a6 72 bd 79 d7 dc 3d 53 72 20 be 0a 2b bd bd
       -0.059240732 0.10783286 -0.15668611 -0.09236725
0001a0 0d a7 d8 3d 16 14 d0 3c 6d 05 20 bd 79 96 19 be
       0.105787374 0.025400203 -0.039067674 -0.14998807
0001b0 47 ac b3 bd 4e 62 86 3e 1a 82 97 be 23 32 0b 3e
       -0.08773094 0.26246876 -0.29591447 0.13593344
0001c0 20 91 1e be d3 5d 34 3e fd ab 88 bb 9c 15 44 ba
       -0.15485048 0.17613916 -0.004170893 -0.00074800267
0001d0 2d 0f f2 bd a7 a8 2e be 81 73 9c be bd 20 db bc
       -0.11819301 -0.17056523 -0.30556872 -0.02674901
0001e0 99 d5 57 bd ff d6 7b be ad 6d 82 3d aa 1d 4a 3e
       -0.052693937 -0.24593733 0.06368575 0.19737878
0001f0 e0 2e b6 be a3 79 67 3d 43 8d bb bd ca 4e d4 bd
       -0.35582638 0.056512486 -0.09157803 -0.1036659
000200 9b a2 d5 3d d9 28 14 3e cf 7e 84 3d a6 00 46 be
       0.10431405 0.14468707 0.06469499 -0.19336185
000210 2b a6 0a 3e c2 c5 44 3e 04 22 57 be e2 ef fa 3c
       0.1353995 0.19216064 -0.2100907 0.030631963
000220 be 8e 14 bd 4a 6f 66 be c2 4a 55 be 08 e4 71 be
       -0.036268942 -0.22503391 -0.20829299 -0.23622143
000230 79 cc 9b 3d ff 5c d5 3d 7c 25 26 3e d2 b2 f5 bd
       0.076073594 0.10418128 0.16225237 -0.11996998
000240 b9 23 f0 bc 80 48 e7 bd 41 49 90 bc 44 38 8f be
       -0.029313909 -0.11293125 -0.017613055 -0.27972615
000250 5c 19 b6 bc 67 2b 05 be 54 bc 80 bc 8a 7d de 3d
       -0.02222889 -0.13004838 -0.015714802 0.108637884
000260 ed 3f b8 3d 55 b3 04 be e1 9f 00 3e 53 55 f0 3d
       0.08996568 -0.12959035 0.12560989 0.11735024
000270 b5 dd 6b be f2 ef 31 be 2f e0 2e 3e d0 2d ab bd
       -0.23033793 -0.17376688 0.17077707 -0.083583474
000280 26 0c 4f be 12 cf 26 be 1a d9 1a be 75 72 6e be
       -0.20219478 -0.16289929 -0.1512188 -0.2328585
000290 25 1a 1d bd cd d9 3c be c1 e9 00 be f5 99 91 3d
       -0.03835501 -0.1844246 -0.1258917 0.07109443
0002a0 21 96 1c 3e 3c 7b 04 be 58 99 4b 3e 50 f4 69 bc
       0.15291645 -0.12937635 0.19882715 -0.01427944
0002b0 5b 61 14 3e 38 9d 7f be 6b d3 95 3c 52 65 26 3e
       0.14490263 -0.24962318 0.018289289 0.16249588
0002c0 f8 b8 df bd 29 63 00 3e e1 41 e6 3d 68 ff 1f 3e
       -0.10923952 0.12537827 0.11243034 0.15624774
0002d0 09 8e f7 bc 09 b6 68 be e1 6a e3 3d 63 85 b9 bd
       -0.030219095 -0.22725691 0.1110437 -0.090586446
0002e0 e8 dc b8 3d 57 05 80 be c6 3a 41 be fc 6d dd 3d
       0.090265095 -0.25004074 -0.18870077 0.108119935
0002f0 d0 1a 39 be ee d2 3f 3e 2d 60 06 3e a3 ec a1 bd
       -0.18076634 0.18732807 0.13122626 -0.07906463
000300 2b bc bd bd f3 56 d9 bd 76 4b d8 3d 4d 47 7f 3e
       -0.09264406 -0.10612287 0.10561268 0.24929543
000310 15 30 ee bd 3a 83 4d be 7f 0a 40 3d 15 02 6e 3e
       -0.11630265 -0.2006959 0.04688501 0.23242982
000320 1e 54 40 3e cb b4 fe 3d 5f 13 54 bd 96 81 7e bc
       0.18782088 0.12436827 -0.051776286 -0.015533825
000330 4f 36 31 bc 08 34 4b be a6 c2 23 3e bc 1d b1 bc
       -0.010816171 -0.19844067 0.15992221 -0.021620624
000340 1b ff 68 be f6 6c 73 be db e1 74 bd e3 2f 1c be
       -0.22753565 -0.23772034 -0.059785705 -0.15252642
000350 42 2e d5 bc fc 71 ad 3d 67 6b 1c be b3 0b 68 be
       -0.026023034 0.084690064 -0.15275346 -0.22660713
000360 c0 d4 6d bc 51 50 d8 bc 5e 10 2b 3e 13 17 ca bd
       -0.014516056 -0.026405485 0.16705462 -0.09867682
000370 03 42 33 be 79 bb d7 3d d8 ff 87 be 7c 8c 23 bd
       -0.1750565 0.105338044 -0.2656238 -0.0399289
000380 70 ac c0 3d a7 0b 64 3d bc 5c e3 bd d9 87 01 be
       0.0940789 0.055675175 -0.11101672 -0.12649478
000390 27 34 c6 3b ba d1 61 3c d5 2d 15 3e 5c 24 08 bd
       0.0060486975 0.013782913 0.14568265 -0.0332378
0003a0 c5 f1 a9 bd d6 fc 1f 3d 6e 19 06 3e 27 f9 07 be
       -0.08298067 0.039059483 0.13095638 -0.13278638
0003b0 34 e2 51 bd 9b fc 43 3e 99 e5 6f be 7a 3e 77 3d
       -0.051241115 0.1913933 -0.23427428 0.060362317
0003c0 c5 60 84 3d b5 d9 c9 3d 0c f8 59 be 43 bf 4a 3d
       0.0646377 0.098559774 -0.21286029 0.049498808
0003d0 29 50 fe bd eb 4a 1d 3e 96 b3 19 be ce b7 d1 3b
       -0.12417633 0.1536061 -0.15009913 0.006400085
0003e0 be 93 56 bd 21 36 b1 3d 05 28 5a 3d 20 33 6b bd
       -0.05238699 0.086529024 0.05326082 -0.057421803
0003f0 13 4c 6c bc 26 c8 86 bd ca 98 94 3c 98 7c da bc
       -0.014422434 -0.06581144 0.018139262 -0.026670739

sequential/dense/BiasAdd/ReadVariableOp f4 [16]
000000 d9 1f 28 be 0b d4 25 3f 1a 21 09 3f 21 b3 c6 3e
       -0.16418399 0.64776677 0.53566134 0.3880854
000010 82 8a d4 3e ff c2 88 be 9c 0d d5 be 35 f4 a7 be
       0.41511923 -0.2671127 -0.41611946 -0.32803503
000020 67 ed 23 3f 21 63 04 bf 26 60 11 be ea 5b c4 be
       0.6403412 -0.5171376 -0.14196834 -0.38351375
000030 55 59 d9 3e 7b b1 cf be 8f af b7 be df cb d9 be
       0.42450967 -0.40565094 -0.35876128 -0.42538354

sequential/dense_1/BiasAdd/ReadVariableOp f4 [4]
000000 80 02 20 3f 62 74 9d bf 6c 81 38 bf 0f ce c3 be
       0.62503815 -1.2301142 -0.7207248 -0.38243148

sequential/dense/MatMul f4 [16, 224]
000000 9d cd d6 bd 60 ad 9d bb 57 01 ba 3d 5b 9a 81 3e
       -0.10488436 -0.0048119277 0.09082287 0.25313076
000010 83 97 40 bd bf 5b c7 3c b8 14 c1 3d 7e ba 10 3e
       -0.047019493 0.02433574 0.0942778 0.14133641
000020 f5 54 40 bd f0 39 db 3c d0 ed 69 bd 76 b1 e2 bd
       -0.04695602 0.026761025 -0.05711156 -0.11069004
000030 e6 7f 93 3c 25 6b ea 3c da 0f 88 3e 82 1b 3a 3c
       0.018005323 0.028615544 0.26574594 0.011359097
000040 33 84 3a 3e 44 20 92 3c 06 cc 8c bd 2e 8a 5d 3e
       0.18214492 0.017837651 -0.06874852 0.21634743
000050 80 3a 40 3e 01 d2 2e bd 83 e8 a0 bd 20 0d 01 3d
       0.18772316 -0.042680744 -0.07856848 0.031506658
000060 96 e6 19 3e a6 44 5d be 58 00 58 bb 9c 99 1b bd
       0.15029368 -0.21608219 -0.003295919 -0.03798829
000070 1b 3c 31 be 41 c8 9b bd 42 16 29 3e 10 31 17 bd
       -0.17308085 -0.07606555 0.16512397 -0.036912024
000080 6c e0 fb bd 85 21 8d bd e0 5f 11 be 96 58 99 bd
       -0.122986645 -0.06891159 -0.1419673 -0.074875996
000090 24 e4 8f 3d e7 f3 af bb 71 08 d0 3d 71 0b 1e 3e
       0.07025936 -0.0053696516 0.1015786 0.15434052
0000a0 fe f6 4e bc ac 47 e3 3d bc f1 23 be 05 35 39 3d
       -0.01263213 0.11097655 -0.16010183 0.04521658
0000b0 44 76 2e 3d ed 66 e8 3d 74 1d a3 3d d8 cd 1d 3e
       0.042593256 0.113477565 0.07964602 0.15410554
0000c0 a7 94 60 be 76 c0 21 be ad 10 20 3e 53 6b 27 bd
       -0.21931706 -0.15796074 0.15631361 -0.040873837
0000d0 8f 22 06 3e 47 74 23 3e e5 bc 00 3d ad 6c 23 bd
       0.1309912 0.15962325 0.031430144 -0.039898563
0000e0 0d 53 f1 3d f3 93 d5 bd d9 f4 40 bd 6c 4a 82 bc
       0.11783419 -0.1042861 -0.047108505 -0.015904628
0000f0 89 1c d1 3c 3d 4b 03 3e 37 9b c5 bc c3 61 8b 3b
       0.025526302 0.1282167 -0.024121864 0.0042535975
000100 b9 ab f5 39 47 88 6f 3d a5 1a 1a bd d0 61 81 be
       0.00046857985 0.058479574 -0.037623066 -0.25269938
000110 96 46 23 bd c9 02 98 3b b0 68 23 bd 32 3b 19 be
       -0.039862238 0.004639004 -0.03989476 -0.14963987
000120 24 3a 39 be 10 2c 8f 3c da f3 7c bd 8d b8 b8 3d
       -0.18088585 0.017477065 -0.061755992 0.09019575
000130 22 bb 64 bd 28 c8 32 be 44 0b 2f be 3b ad 58 bc
       -0.055842526 -0.17459166 -0.17094141 -0.013224895
000140 b6 43 cb 3d e5 ce 5c bd 14 d4 44 3e b6 f6 51 bd
       0.09925024 -0.053908248 0.19221526 -0.051260673
000150 8e 09 a2 bc cf ae 32 3e de ac 25 bd fb 95 81 bd
       -0.019779947 0.17449497 -0.040448062 -0.06327435
000160 12 5e c1 3d 7e c1 10 bd f7 13 49 3d ed 09 0c bb
       0.094417706 -0.03534078 0.049091306 -0.002136822
000170 b1 e8 d5 bc bf 17 cf bd c7 89 30 be 92 5d 4e 3e
       -0.026111932 -0.10111951 -0.17240058 0.20152882
000180 25 53 55 3e 56 9d e5 bc 05 d3 86 3d e8 d7 29 be
       0.20832498 -0.028029125 0.065832175 -0.16586268
000190 a4 4d 1a 3e 8a 5d c5 3c f4 45 25 3e 06 b3 ac 3d
       0.1506868 0.024092454 0.16139966 0.084325835
0001a0 d3 14 a8 3c 03 2a 15 3c 71 e1 9b bd f4 4f 8f bd
       0.020517742 0.009104255 -0.07611359 -0.06997672
0001b0 1b 12 0c 3e dd 66 d1 bd 55 51 9c 3d cd 2a df bc
       0.13678782 -0.10224698 0.076327 -0.027242089
0001c0 3c 15 b2 3d 38 60 d0 bd 5b 20 7f bc 1c cd 40 bd
       0.086954564 -0.10174602 -0.015571679 -0.047070608
0001d0 f8 f6 76 bd 06 d7 0c 3e 5d 18 2c 3d e9 72 13 3d
       -0.06029412 0.137539 0.042015422 0.03599826
0001e0 da b9 af 3d 95 a5 4d 3d 41 db 4e 3e ee 44 32 3e
       0.0858037 0.05020674 0.20200826 0.17409107
0001f0 88 d8 0a 3e 1b 14 14 be 8d 39 e4 3d 24 2d f6 3d
       0.13559163 -0.14460795 0.111437894 0.12020329
000200 04 de eb 3d 07 bd 4e be 65 a4 bd 3d 7c 6a d2 3d
       0.115169555 -0.20189296 0.092598714 0.102742165
000210 1c 83 df 3d 4e 4f 69 3e 9b 16 aa bd cf 4b c6 3c
       0.10913679 0.22784159 -0.08305093 0.02420607
000220 ce 63 0c bd 01 c2 81 3b 46 b2 06 bd 97 b3 89 bc
       -0.03427487 0.0039598946 -0.03288486 -0.016809268
000230 ff f3 0a 3e 56 28 0a 3e 11 f5 35 3e 09 b0 5f 3e
       0.1356964 0.1349195 0.17769267 0.21844496
000240 46 ee 2e 3d c0 22 fe 3d d4 46 3f 3e 5e b1 95 3e
       0.042707704 0.12408972 0.18679363 0.29236883
000250 f4 59 51 3e 34 c4 3b 3d 3c 1c be bd 09 75 c4 bd
       0.2044447 0.04584141 -0.09282729 -0.09592635
000260 39 82 a3 bc 07 ea 3e 3d 56 c3 c6 bd c6 74 2f 3d
       -0.019959556 0.046609905 -0.09705226 0.042835973
000270 1f 97 49 3d 56 d3 08 bd 56 12 96 bd fe 66 c7 3d
       0.049216386 -0.03340467 -0.07327716 0.09736441
000280 ce 28 09 3e ec 62 cb bb f5 4e 6f 3c a9 a7 a4 bd
       0.13394472 -0.0062068608 0.014606227 -0.08039791
000290 ad 1f fe 3d e3 d8 41 3e b0 33 54 be d1 a9 ec bc
       0.124083854 0.18930392 -0.20722842 -0.028889569
0002a0 a6 c0 2d 3e 58 ff 3a 3d ec 0f 6a 3b 8e 30 f4 3d
       0.16968021 0.04565367 0.0035715057 0.119233236
0002b0 d1 b4 ee 3c 9d 89 00 3e 58 91 81 bd 3d 99 2a 3e
       0.029138954 0.12552495 -0.0632655 0.16660018
0002c0 b7 f9 96 3e 36 66 f8 3d 3f 7a 2e 3e 07 e0 84 3e
       0.29487392 0.1212887 0.1703882 0.2595217
0002d0 12 25 2d 3e fd b6 af bd fb 3d 88 bd 18 8b 4c 3d
       0.16908672 -0.08579824 -0.06652447 0.049937338
0002e0 17 b3 27 3d d6 ca 22 3d 64 38 0c 3d 13 8d 80 3c
       0.040942278 0.03974422 0.034233466 0.01569227
0002f0 10 d5 af 3d b4 d0 13 be c7 e1 4f 3e 2f 23 8e 3a
       0.0858556 -0.14435083 0.20300971 0.0010844226
000300 d0 51 4a 3e 09 35 bf 3d 23 10 34 3e e8 3d c4 3e
       0.19757771 0.093362875 0.1758428 0.3832848
000310 40 b5 03 3e 53 f5 0a be 71 d7 83 3d f5 55 4d 3e
       0.1286211 -0.13570146 0.064375766 0.20052321
000320 ed 48 5e 3d ce 5b 30 3d 48 79 ae bd 75 78 21 3d
       0.054268766 0.0430563 -0.08519226 0.039421517
000330 6d 23 7e 3c 59 90 d2 3d 4b f2 5d 3e 58 5f db 3d
       0.015511376 0.102814384 0.21674459 0.10711545
000340 c6 79 85 3e 58 79 13 bc cb ff c6 bc ea 16 a5 3e
       0.26069468 -0.009001099 -0.024291893 0.32244045
000350 f3 f3 32 3d 9c f2 13 bd d4 d1 66 3e 19 91 23 3d
       0.04368968 -0.036120042 0.2254098 0.039933298
000360 f5 d8 05 3d ba b7 ca bb a6 e2 fb 3d ae 92 d4 3d
       0.03267761 -0.0061864527 0.12299089 0.103795394
000370 11 70 15 3e dc c2 df 3d 8c ea 7e 3e 53 fc e4 3d
       0.14593531 0.10925838 0.2489416 0.111809395
000380 0d 4a 01 be 5a b3 28 3e 60 b3 59 3d fe 82 c4 3d
       -0.12625904 0.16474667 0.05314958 0.09595297
000390 80 6d 88 bc f1 d3 ad bd a7 e2 d8 3d b6 94 e6 bd
       -0.016653776 -0.0848769 0.105901055 -0.11258833
0003a0 a2 b0 fc bd c7 20 14 3e 04 b1 f2 bd a4 a3 ce 3c
       -0.123383775 0.14465629 -0.11850169 0.025224514
0003b0 81 f0 e1 bc 2a 97 b5 3d 28 7d b5 bb 14 d7 13 bd
       -0.027580502 0.08866723 -0.0055386014 -0.036093786
0003c0 f9 da 7a bd 80 fa 32 3e 1e 5f 9a bc e1 75 81 3e
       -0.061243985 0.1747837 -0.018844184 0.25285247
0003d0 7f 93 02 be 56 71 14 3d 3a f5 7f 3d 14 ed b1 bd
       -0.12751578 0.036240898 0.062489726 -0.08687797
0003e0 f9 71 34 3e 62 95 75 bd b1 78 8d bd d3 52 13 be
       0.17621602 -0.059956916 -0.06907786 -0.14387064
0003f0 b6 05 1e 3e ed 7f 12 be 0c cf e9 3c 46 6b 94 ba
       0.15431866 -0.14306612 0.02854111 -0.0011323474

sequential/dense_1/MatMul f4 [4, 16]
000000 f4 75 a6 be 9d 00 b3 3e 66 e2 5e 3e 38 e1 d7 3e
       -0.32511866 0.34961405 0.21766052 0.42164016
000010 7a ae f6 3e f7 22 c1 3c 35 f4 a1 bc ea d5 f4 be
       0.4817999 0.023576243 -0.019769767 -0.47819453
000020 9d c9 d0 3c da 85 9a bd bf eb ab be fb a3 bf be
       0.025486762 -0.075450614 -0.33578297 -0.37429795
000030 07 4d 35 bd b8 58 ae be ce 0d bc be 53 a2 d9 bd
       -0.044262912 -0.34052062 -0.36729282 -0.10626664
000040 37 ca b8 be 64 1c c1 bf 8f be a8 bf 72 b3 e0 3e
       -0.36091778 -1.5086789 -1.3183154 0.43886906
000050 ed 4f 80 3e cf 7f f7 bd 90 a0 32 bf a9 fd b3 be
       0.2506098 -0.120849244 -0.6977625 -0.35154465
000060 6e 29 0d bf 16 1d 03 bf d8 f3 66 bf aa a6 8d 3e
       -0.5514134 -0.51216257 -0.90215826 0.27666217
000070 f0 6c 9d be 74 02 c5 be 06 44 aa bf 53 3f 9c 3e
       -0.30747175 -0.38478434 -1.3302009 0.30517063
000080 1f 27 41 bf 35 bf b5 bf 43 23 dd be fb 70 41 be
       -0.7545032 -1.4198977 -0.43190965 -0.18890755
000090 6c aa 96 be f7 78 9c be 25 6a 5c 3d 55 71 df 3d
       -0.29426897 -0.3056104 0.053812165 0.10910288
0000a0 92 c7 f1 be 69 59 99 3e b9 b2 9b 3e 77 f2 c7 3e
       -0.47222573 0.29951027 0.30409792 0.39052173
0000b0 d6 b1 e8 be 26 8b 00 bf 52 2b 98 be 4a 2f 5a 3e
       -0.45448178 -0.50212324 -0.2972055 0.21307102
0000c0 28 3a be bd 69 ee 64 3e c1 e5 9e be 93 8a e5 bd
       -0.09288436 0.22356571 -0.31034663 -0.112080716
0000d0 ef 0f a6 be 3c 0e 86 3e 65 f0 08 3f 1f 31 80 be
       -0.3243403 0.26182735 0.5349181 -0.25037476
0000e0 76 71 ba be f6 e9 f9 3d 9a 83 39 3e ae 04 0e 3f
       -0.3641469 0.12202828 0.18116608 0.5547589
0000f0 1e c9 cb be f3 68 e8 3d 48 3a b7 bd 65 b4 09 3f
       -0.39801878 0.113481425 -0.08946663 0.53790885
