train/model.tflite (tflite, 10228 bytes, 8 tensors)

sequential/conv2d/BiasAdd/ReadVariableOp f4 [8]
00000000: 758a 87bd 78ff 6fbf 5720 52be fe65 43bf
00000010: f2cf 543e e8a1 2fbf a8c6 e2bd 9e6c ecbe
-0.066182055 -0.9374919 -0.20520149 -0.763275 0.2078245 -0.68606424 -0.11073047 -0.46176618

sequential/conv2d_1/BiasAdd/ReadVariableOp f4 [16]
00000000: 3553 00be ae38 113f a602 45bf 72ed b13e
00000010: 6300 afbe 2f17 cd3e 4d32 dfbc 49b1 82bd
00000020: 4b0d 853d f1ff c8bd adf4 01bf 0f20 1abf
00000030: 1108 01bf fd5c 913d 4386 223e 222d 883d
-0.12531741 0.5672711 -0.76957166 0.3475147 -0.34179983 0.4005675 -0.027245665 -0.06381471
0.06496676 -0.09814442 -0.5076397 -0.6020517 -0.50402933 0.07097814 0.1587153 0.066492334

sequential/conv2d/Conv2D f4 [8, 4, 3, 1]
00000000: a1df 9ebd 9028 5e3e 373f 1cbd 5120 5ebe
00000010: 85ee 2db9 59f2 a53c 32b1 d63d fe80 d83b
00000020: 0929 00be eaf6 91bc 857d 3ebd 1a7f b6bd
00000030: be62 43be 5dfa d13d 0b0d 52be 2feb 8ebc
00000040: e86b e4bb c0d1 46be 4fb9 273c 2d88 f8bd
00000050: 16d6 0dbd a06c 6d3e ca66 953d b1c0 233e
00000060: 4ab2 8cbb 18f0 56ba 3a6e c2bd 5af1 bc3b
00000070: 3de2 93bb c018 15bd 7661 493d d42b c83c
00000080: bb3f 243d 01c9 7abd 98c7 e5bd 71c4 853d
00000090: df6d be3d 2fcc c0bc 6183 c33d b91b 383e
000000a0: a1cc 94be 7c5e 65bd 0807 64bc 242b 6d3b
000000b0: 992f e7bd fb21 0bbd 4ada 063e 88cd 27be
000000c0: b64b 363d d5a6 35be e6fd dcbd 0cbb d73d
000000d0: e6d0 37be 6eab 003e cb2a fb3b 9dce 15be
000000e0: 806b 103e 580f 593d bcf4 c63c 7e5a 5e3d
000000f0: 5891 2e3e 81a3 fcbd eb6e 1dbe bedf 823d
00000100: 6ca7 bb3d f4c4 cebd d0a2 debd fe8e 1abe
00000110: 1202 45bd d0d9 0f3e 7ef4 8a3d 0e67 0e3c
00000120: d3ee 58be d8e1 903c 11c2 97bd c6d8 61be
00000130: d3f8 ee3d c28b 91be 0b51 f83b ef27 cf3d
00000140: 8a61 2ebd 78c4 4cbd 8993 c13d 107e 0d3e
00000150: c270 42bd 7651 d93c df87 9a3e 8f9c 9c3d
00000160: a073 1abe d3fc 8c3d f5eb b4bd ee22 053e
00000170: b8ec 04be 7b2e 61be aaf8 773d 4794 37be
-0.077574976 0.21695161 -0.038146224 -0.21692015 -0.00016587421 0.020257162 0.10483016 0.006607174
-0.12515654 -0.017817933 -0.046506424 -0.089109614 -0.19080636 0.10252831 -0.20512788 -0.017446129
-0.0069708712 -0.19415951 0.010237052 -0.121353485 -0.034627996 0.23185968 0.07294996 0.15991475
-0.0042937146 -0.0008199229 -0.0949368 0.005766076 -0.0045130537 -0.036400557 0.04916521 0.024434961
0.04009984 -0.06122685 -0.1121971 0.06531609 0.092983 -0.023534862 0.09546543 0.17979325
-0.2906237 -0.05599831 -0.013917692 0.0036189044 -0.112883754 -0.033967953 0.13169208 -0.16386998
0.044505797 -0.17739423 -0.10790615 0.10533723 -0.17950782 0.12565395 0.0076650134 -0.14629598
0.14103508 0.05299315 0.02428662 0.05428552 0.17047632 -0.123358734 -0.15374343 0.06390332
0.091627926 -0.100961596 -0.10870898 -0.1509361 -0.048097678 0.14047933 0.067849144 0.008691562
-0.21184854 0.017685816 -0.07410062 -0.22055349 0.11668553 -0.2842694 0.0075780204 0.101150386
-0.04257349 -0.049992055 0.09451968 0.1381762 -0.047470815 0.026528101 0.30181786 0.07647049
-0.1508317 0.0688416 -0.08834068 0.13001606 -0.12980926 -0.21990387 0.06053988 -0.17927657

sequential/conv2d_1/Conv2D f4 [16, 4, 1, 8]
00000000: 7adb a63d 408f 5b3e e5e4 493e b68f 2f3e
00000010: bcc1 e1bd 680a 083e f661 26be 649c abbd
00000020: 2ff1 2bbd a4c8 6dbe 50da c1bd 2f5c 703e
00000030: 5aff 79be 0c33 33be 67f2 553d 893e 333e
00000040: a8e3 eb3b 7ea3 a0bd 4202 6ebe 363c 2b3e
00000050: 3616 2e3d 8374 4abe 150b 0dbe 6184 2a3d
00000060: 4a9a b2bc 28f5 64be 165c ccbc 1212 cbbd
00000070: 1789 3cbe 0a3a 003e e2b9 fabd 678e 993c
00000080: f4f1 a53d 32c1 f83c a093 69be 6871 183d
00000090: d53b 06be e810 1cba fe88 12bb a58d e73d
000000a0: 02e1 333e 9d07 12be c9f3 f1bd 0db8 31be
000000b0: 5669 883e ef90 3bbe f18a b83d 5a49 9abe
000000c0: e5e7 c3bd a36b 733c a49d 08bd ccd1 46be
000000d0: b22f 143e 1415 e93d d635 7b3d 722a 9abe
000000e0: 5977 4abe e1f5 3fbe 8372 6abe 3492 abbd
000000f0: 769c bebe 41f3 1fbd 12e8 9c3b c914 203e
00000100: 4257 59be 8796 64be 0f4a dcbd 09e1 9f3d
00000110: b0bc 1dbd cc03 1b3e aa08 0b3d 5528 8ebd
00000120: b98c 123d 15eb 133e fdd1 a63c 8e94 563e
00000130: 8c13 b83d 5947 0d3d 4019 cbbd 0a17 5cbd
00000140: 39f6 33bd 5dc8 dd3d 616b 81bb ef91 2a3e
00000150: 84da 20be e9bf 4bbe a91c acbc dc54 9a3d
00000160: 511a 1e3e 2504 d6bd 4a04 9c3c 57dc f3bd
00000170: 0f21 343e 2c50 153e 2190 403d 93f2 4c3e
00000180: 27fa 8ebe 195f b6be 1a61 2dbe 63e5 2dbe
00000190: e70f 013e c5b9 71bc 6e31 0bbe c0d8 1f3d
000001a0: 65a2 4fbe d287 cdbe be65 8b3d eec9 b8bd
000001b0: 6a59 5ebd eea1 c5bc d150 d2bd d715 41be
000001c0: f111 e33d f905 68be 0be9 753e bc89 dabc
000001d0: 3c00 89be bae7 4dbe a060 c4be ba66 9c3d
000001e0: bba2 4cbb 19ce 893e 802d c8bd 5f9b b13e
000001f0: 5797 4a3e d6f8 e4bc 74eb bb3d c535 673d
00000200: 46c7 9cbc 5f0f aebd ecee ed3d abff 86bc
00000210: 76c8 d73d 8c90 c53d e282 fa3d f047 c23d
00000220: 7425 a1bd c5b2 a9bc 3b69 d83d 8368 0bbe
00000230: e455 15be e177 6e3d f21c 4b3d 70f4 ce3d
00000240: 6162 673d 6a14 3b3e 3df2 eb3d 6cc4 65be
00000250: adbc 11be 3600 46be 9803 293e 2f09 b8bd
00000260: 8291 2b3e 80da 123e 6a15 e9bd 69d7 fdbd
00000270: 4f9d 2bbd 7b71 afbc dbbd cb3c 6dad 62be
00000280: b542 71be e885 903a 7b45 6dbd b74c dbbd
00000290: 6c26 8ebd bd84 b63d f093 5bbe 11a6 e3bd
000002a0: c437 543e 65ad 673e f237 a23d af72 d23d
000002b0: 74f1 0fbe 4df0 1d3e c232 123e 957f 14bd
000002c0: 3493 ebbd 59e1 edbd 4a09 a0be 3ccc 32bb
000002d0: f875 c4be c9c7 2abd 2943 d9bd 14fb b9bd
000002e0: d6f1 04be 99de 5bbe 0c35 093e 3bcb 99bd
000002f0: ab8c 4abe 6bd6 21be 6e43 823e 84b4 7b3e
00000300: 5528 463e 490c 30be d29f 0a3e 3848 70bc
00000310: 6809 0cba 9126 4b3d 3b59 c9bd 7f06 41bd
00000320: c776 c53d 42b3 6fbd 487f 42be 929c 94bc
00000330: e620 78bd 58ff e0bd 1667 ecbd 1148 143e
00000340: 7c5c 8ebd cbf0 8bbd eb48 3abe d747 babd
00000350: bddc 113e dc11 0ebd 5641 99bd a0c3 913d
00000360: 6b25 e33d 2ef3 483e c9c7 013e 7618 06be
00000370: 8fa0 39be 4f4c 913d 975a 8dbd 7fa8 dbbd
00000380: c7c6 af3d 6750 21be 520d c33d 5531 8d3c
00000390: 7568 463c 5bd6 5fbd 6209 b6bd c02d 6b3d
000003a0: 99ab f33d 4ade 043e 12d8 3bbe 168d 78be
000003b0: 9ea7 18bd 88e2 533d f80f 9d3e 19a7 253e
000003c0: b9ee 973d 030f b23d 9b7e 803d 6d49 38be
000003d0: 1e9d 323e a322 06be b218 07be 576d 4cbe
000003e0: 51c2 1dbd 8bfb 5b3e c8cb 34be b6cb 97bd
000003f0: 0a15 38be a8cd bcbd 9cee 48be dbb9 a63b
0.081473306 0.21441364 0.19716223 0.17144665 -0.1102328 0.1328522 -0.16248307 -0.083794385
-0.041978057 -0.2322107 -0.09465468 0.23472665 -0.24413815 -0.17499942 0.052233126 0.17504324
0.0071987696 -0.07843684 -0.23243049 0.16722187 0.04250165 -0.19771008 -0.13773759 0.041630153
-0.021802086 -0.22359145 -0.024946254 -0.09915556 -0.1841167 0.1252214 -0.122424856 0.01874466
0.081027895 0.03036556 -0.2281022 0.037217528 -0.13108762 -0.0005953447 -0.0022359486 0.113063134
0.17566302 -0.14260717 -0.118140765 -0.17355366 0.26642865 -0.18317007 0.09010876 -0.30134088
-0.09565715 0.014857206 -0.033353463 -0.19415969 0.1447132 0.113809735 0.06133064 -0.30110508
-0.1977209 -0.18746139 -0.22895245 -0.083774954 -0.37228745 -0.039050344 0.004788407 0.15632929
-0.21224692 -0.22323047 -0.10756313 0.07806594 -0.038510025 0.15138167 0.03394381 -0.069412865
0.035778735 0.14445145 0.020363802 0.20955107 0.08988103 0.03449187 -0.099169254 -0.05373291
-0.043935988 0.10829232 -0.003949568 0.16657232 -0.15708357 -0.19897427 -0.02100976 0.07535717
0.15439726 -0.10450009 0.019045014 -0.11907261 0.17590736 0.14581364 0.047012452 0.2001441
-0.27925226 -0.3561943 -0.16931573 -0.16982035 0.12603723 -0.014753764 -0.13593075 0.03902507
-0.20276792 -0.40142685 0.06806515 -0.0902289 -0.05428449 -0.024125066 -0.10269321 -0.18855987
0.110874064 -0.22658528 0.2401468 -0.026677005 -0.2675799 -0.20107928 -0.3835497 0.07636781
-0.0031224925 0.26915053 -0.097743034 0.3468885 0.19784294 -0.027950685 0.091757685 0.056447763
-0.01913799 -0.084990256 0.11617836 -0.016479334 0.10536282 0.09646711 0.12231995 0.09486377
-0.07868472 -0.020715127 0.10566946 -0.13614087 -0.14583546 0.058219794 0.04958815 0.101052165
0.056490306 0.18269506 0.11520813 -0.2243821 -0.1423213 -0.19336018 0.16505277 -0.08986127
0.16754726 0.14341164 -0.113810375 -0.12394602 -0.041898068 -0.021416416 0.024870804 -0.22136469
-0.23560603 0.0011026235 -0.05792759 -0.107079916 -0.06940922 0.089120366 -0.21443152 -0.11115659
0.20724398 0.22624739 0.07920827 0.102757804 -0.14056951 0.15423699 0.14277175 -0.036254484
-0.11502686 -0.11615247 -0.31257087 -0.0027282378 -0.38371253 -0.041694436 -0.10608513 -0.090810925
-0.12982878 -0.21471633 0.13399142 -0.07509466 -0.19780223 -0.1580445 0.2544207 0.2458058
0.19351323 -0.17192186 0.13537529 -0.014665656 -0.0005341978 0.049597327 -0.098314725 -0.047125336
0.096417956 -0.058520563 -0.18993866 -0.018141065 -0.06057825 -0.10986203 -0.115430996 0.14480616
-0.06951234 -0.06833037 -0.18191878 -0.090957336 0.14244361 -0.034685 -0.07483165 0.07117391
0.11091121 0.19624016 0.12673868 -0.13095269 -0.18127654 0.07094633 -0.06902044 -0.107254975
0.08582836 -0.15753327 0.09524025 0.017235437 0.012109865 -0.054647785 -0.088885084 0.057416677
0.11897964 0.12975422 -0.18344143 -0.2427257 -0.037269227 0.05172971 0.30676246 0.16177024
0.074185796 0.086942695 0.06274148 -0.1799676 0.17442748 -0.1309915 -0.13193014 -0.19963585
-0.038515393 0.21482675 -0.17655861 -0.07411902 -0.17976776 -0.09218913 -0.19622272 0.0050880737

sequential/dense/BiasAdd/ReadVariableOp f4 [16]
00000000: 6281 08bd c800 1cbe ffda 04bf d94a 24be
00000010: 4473 9dbe 6cca cfbd 433d c13c d5f7 cb3e
00000020: b33d 36bd 0fa2 0cbf 8fbd f6bd 311e c8be
00000030: 5e03 12bf ac5c 34be 8122 2cbf ff8b c6be
-0.033326514 -0.15234673 -0.5189666 -0.16044177 -0.30752003 -0.10146031 0.023588782 0.39837518
-0.044492435 -0.5493478 -0.12047874 -0.39085534 -0.5703639 -0.17613477 -0.6724015 -0.38778684

sequential/dense_1/BiasAdd/ReadVariableOp f4 [2]
00000000: e319 203f e519 20bf
0.625395 -0.6253951

sequential/dense/MatMul f4 [16, 64]
00000000: fe44 3ebe b737 8d3d 0c64 d23d 5494 1b3e
00000010: e0a0 183c 47b9 553b 3527 20be 9e28 5ebe
00000020: 18e4 a9be ba6d e93d 1e13 3fbd f844 78be
00000030: b1b1 3fbe b896 96be 8084 123d 98a0 8fbc
00000040: 6604 bebd 5733 59be 89ac 92be 36dc eabd
00000050: 5ba1 cebd 3cc4 303e 424b 613d 2fe3 003e
00000060: 82e3 ba3d 3296 c83b c7f1 81bd 028d 8b3c
00000070: 7ea8 78be 6cb4 30be 8c31 0a3e f210 2bbe
00000080: 894f 04be ef52 30bc b3d8 2ebe 0f91 34bb
00000090: b57e 093e 428b 393c f23d 4cbe 5937 1c3e
000000a0: 5285 88bd 2f8e 2c3e 0656 383e a979 6abe
000000b0: 24df b63d 2172 f43c 2d37 0c3e e522 233e
000000c0: 0fa3 1fbe 4fd0 9bbd fabf afbd e2cb 4cbd
000000d0: 3a5d 45be 1b29 b6be 084b c3bd fe92 68be
000000e0: 64bc 87be eab5 223e a6bc e93c a3a2 08be
000000f0: d1c2 5fbd cdf1 90be e635 433e 0647 65be
00000100: ea02 213e e3ee 2dbb e0b7 9bbc ff83 603e
00000110: 49ff c33d f950 283b c653 863d 4d88 16bd
00000120: 104f 3dbd 8a71 64be e9eb fe3b 05cc 403e
00000130: 5442 89be 848a f0bb 59eb bebd 13fa 59bc
00000140: d692 60bd 86a4 6dbe d946 9d3d 4cea f0bd
00000150: f37f 9ebe 0160 9dbe 2a90 353c d656 09be
00000160: e33e 94be 376d 29bd cd85 b0bd 536a d6ba
00000170: 309a 8fbe 6edb d9bb 3818 2b3e 9eef 113e
00000180: b21a 75be dd22 71be 0472 93be dd97 0e3e
00000190: 060d 7fbe 428f 063e 28b4 9dbe befd 99be
000001a0: ad86 9abd 2047 32be 82c7 d33d 5788 91bd
000001b0: ee80 8abd 7e7c 48be e2ac 56be abf4 2d3e
000001c0: fee9 043e 249c 513c d11b eebd 46f5 fabd
000001d0: 2e8f 01be 03e2 90bd c68c 70be 8d4a 413e
000001e0: 3b03 8dbe 12ed 5f3e f8de 88be 2d48 2b3d
000001f0: 5ae7 9bbd e3df 7bbe 1f50 36bd fe5c e23d
00000200: 5c0b 513e 926b c43d d995 3a3e 057e 13be
00000210: 3e9a 9ebd bb13 b1bc 92e8 5f3e f137 853e
00000220: 54df 443d f802 b73e f614 af3e cfd3 d83d
00000230: 2f8c 853e 1490 523e 10fe 7a3e 0b3f 943e
00000240: 030c 13be f0ed 223f ec9f de3c e0aa f1be
00000250: a8c2 04be 70a2 76be 18fb 1e3e f58e 80bb
00000260: 2170 51bd ff3d 3c3e cdd0 1c3e fda1 10bc
00000270: 73eb 043d 920f e6bd 44bf d53e c297 293e
00000280: c7c6 4d3e 4816 043e 3b8c fbbd c663 32be
00000290: 4e4e fe3d 5c7a 6c3e 00be 1fbe aff1 c2bc
000002a0: ca9d 0abd 47e1 093e 0361 33be be39 b63d
000002b0: 9382 d3bc 5c2a ffbc 14ff 563e 11e3 dc3d
000002c0: fdc5 b03d 2e7d ffbd c392 bd3d f58f a53d
000002d0: decc 213d cd0e b4bc c6e9 4a3e 0414 cbbd
000002e0: c135 023c c2f7 87bd 7de1 043d fded 453e
000002f0: 27a4 08be e256 43be d12e 31be fabc 0b3e
00000300: 888f 9abe 6d04 79be 3f0a 1fbe 48aa 5a3d
00000310: 922a bcbc 75af c93d 8d69 76be c6b6 303e
00000320: 184b cfbe 155f 75be 7a70 9f3d 9905 6ebe
00000330: 299a 6d3e 0335 2c3e e2d0 5abe 7de4 60be
00000340: 209e 50bc e812 483e d546 b3bd 88a9 cbbd
00000350: 8613 123d 2688 f7bd 1672 113e 7926 6b3e
00000360: aaa0 66be f654 0abe 94c3 833e abcb f3bc
00000370: 9371 05bc fb7f 89bd c910 173d 9b7a 643d
00000380: bc65 a43d 14fc f63a c595 bebd ddb3 733d
00000390: 3708 6c3e a51c cebb 1738 1d3e b570 10bd
000003a0: c389 503e 1fed 53be 8cf5 86bd 90d9 d9bc
000003b0: 5680 35be 407e 65be fe97 acbd 97c8 4a3e
000003c0: c7ff 9fbb 18e2 fabd 2226 fabd 14b8 073e
000003d0: 1149 81bd 60a6 4cbe 7ebc f9bd 2a33 24be
000003e0: df37 81bd a4fc 4e3e 175b 9cbc babe 42be
000003f0: 7ac0 38be 9ab7 e73d d6a0 4b3d 540c 213e
-0.18581006 0.068953924 0.10272989 0.15193301 0.009315699 0.0032611655 -0.15639956 -0.21695182
-0.33181834 0.11397882 -0.04664909 -0.2424506 -0.18720128 -0.29411864 0.035770893 -0.017532632
-0.09278183 -0.21210991 -0.2864726 -0.11467783 -0.1008937 0.17262357 0.055003412 0.12586664
0.09125425 0.0061214203 -0.063449435 0.017035011 -0.24283025 -0.17256325 0.13495463 -0.16705683
-0.12920965 -0.01076196 -0.17074852 -0.0027552282 0.13427241 0.011324706 -0.19945505 0.15255488
-0.06666054 0.16851114 0.18001565 -0.22897972 0.089292794 0.029839577 0.13692923 0.1593128
-0.15589546 -0.07608091 -0.085815385 -0.049999125 -0.19273844 -0.35578236 -0.095357955 -0.22712323
-0.26510918 0.15889707 0.028532337 -0.13343291 -0.05462915 -0.2830948 0.1906353 -0.22390375
0.15723768 -0.0026540093 -0.019008577 0.21925353 0.09570176 0.002568303 0.06558947 -0.03675108
-0.046217978 -0.22308937 0.0077795875 0.18827827 -0.26808417 -0.007340731 -0.09322233 -0.013304251
-0.054827534 -0.23207292 0.07679529 -0.117634386 -0.30956993 -0.30737308 0.011081735 -0.13412032
-0.2895423 -0.04136392 -0.086192705 -0.0016358591 -0.28047323 -0.0066484725 0.16708457 0.14251563
-0.23935965 -0.23548456 -0.28797925 0.13925119 -0.24907312 0.13140586 -0.3080151 -0.30076402
-0.075452186 -0.17409945 0.103407875 -0.07106083 -0.06762873 -0.1957874 -0.20964387 0.16987865
0.12979886 0.0127935745 -0.11626399 -0.122538134 -0.12652275 -0.07074358 -0.23491201 0.18876095
-0.27541527 0.21867779 -0.26732612 0.04181688 -0.07612486 -0.24597125 -0.044510003 0.11052893
0.2041449 0.0959083 0.18221225 -0.14403541 -0.07744263 -0.021615854 0.21866062 0.26019242
0.048064545 0.35744452 0.3419568 0.10587274 0.26083514 0.20562774 0.2451098 0.28954348
-0.14360051 0.63644314 0.027175866 -0.4720068 -0.1296488 -0.24085402 0.15525472 -0.003923292
-0.051132325 0.18383025 0.15314026 -0.0088276835 0.032451104 -0.112334386 0.41747487 0.16561797
0.20095359 0.12899125 -0.12282606 -0.17420873 0.12417279 0.23093551 -0.15599823 -0.023796884
-0.033841886 0.13464843 -0.17517476 0.08897732 -0.025819099 -0.031148128 0.20995742 0.10785497
0.08631513 -0.12475048 0.09256508 0.08084098 0.039502017 -0.021979714 0.1981574 -0.09915927
0.007947386 -0.06639053 0.032441605 0.19329067 -0.13343869 -0.19076112 -0.17303015 0.13646308
-0.3018763 -0.24318095 -0.15531252 0.05338505 -0.022969518 0.09847919 -0.24063702 0.17257223
-0.4048698 -0.23962052 0.07785125 -0.23244323 0.23203339 0.16817097 -0.21368745 -0.21962161
-0.012733012 0.19538462 -0.087537445 -0.09944445 0.03566315 -0.12086515 0.14203677 0.22963895
-0.22522226 -0.13508973 0.25735152 -0.029760202 -0.008144754 -0.067138635 0.036881242 0.05578099
0.08027217 0.0018843436 -0.0930591 0.059497703 0.23050009 -0.006290036 0.15353428 -0.035263736
0.20365052 -0.20695923 -0.06589803 -0.026593 -0.17724738 -0.22411442 -0.08427428 0.19803081
-0.004882786 -0.12250155 -0.122143045 0.13253814 -0.063127644 -0.19985342 -0.12194155 -0.16035143
-0.06309485 0.20213562 -0.019086404 -0.19018069 -0.18042174 0.11314316 0.049713932 0.15727359

sequential/dense_1/MatMul f4 [2, 16]
00000000: b792 b53e 04b6 7b3d 0c1c 6fbe 9827 2ebe
00000010: 591f 9ebe 50f0 d73e ef40 643d c79c 483e
00000020: f3cb 023e 5a80 8d3e 9ea3 073d 0d60 96bd
00000030: 2756 20bf e2de f3bb fec4 98be 9d7c de3b
00000040: 6d54 4dbe e58e 96be ba95 23be 9e5f 08be
00000050: 884b e43d be56 ecbe 7c9e 87be 1aa4 8bbe
00000060: 7472 92bd c7a3 b93e a376 173f 16c2 a93c
00000070: 0923 efbe 4aca df3e a6b4 77be 3edf d73e
0.35463497 0.06145288 -0.23350543 -0.17007291 -0.3088329 0.4217553 0.055725988 0.19591056
0.12773113 0.27636987 0.033115022 -0.07342539 -0.6263146 -0.007442341 -0.29837793 0.0067897574
-0.20051737 -0.29405895 -0.15975085 -0.13317725 0.11147219 -0.4615993 -0.264881 -0.27273637
-0.071507365 0.36257765 0.591654 0.02072243 -0.46706417 0.43709022 -0.24190006 0.42162508
