train/model_quantized.tflite (tflite, 7232 bytes, 8 tensors)

sequential/dense_1/MatMul f4 [2, 16]
000000 b7 92 b5 3e 04 b6 7b 3d 0c 1c 6f be 98 27 2e be
       0.35463497 0.06145288 -0.23350543 -0.17007291
000010 59 1f 9e be 50 f0 d7 3e ef 40 64 3d c7 9c 48 3e
       -0.3088329 0.4217553 0.055725988 0.19591056
000020 f3 cb 02 3e 5a 80 8d 3e 9e a3 07 3d 0d 60 96 bd
       0.12773113 0.27636987 0.033115022 -0.07342539
000030 27 56 20 bf e2 de f3 bb fe c4 98 be 9d 7c de 3b
       -0.6263146 -0.007442341 -0.29837793 0.0067897574
000040 6d 54 4d be e5 8e 96 be ba 95 23 be 9e 5f 08 be
       -0.20051737 -0.29405895 -0.15975085 -0.13317725
000050 88 4b e4 3d be 56 ec be 7c 9e 87 be 1a a4 8b be
       0.11147219 -0.4615993 -0.264881 -0.27273637
000060 74 72 92 bd c7 a3 b9 3e a3 76 17 3f 16 c2 a9 3c
       -0.071507365 0.36257765 0.591654 0.02072243
000070 09 23 ef be 4a ca df 3e a6 b4 77 be 3e df d7 3e
       -0.46706417 0.43709022 -0.24190006 0.42162508

sequential/conv2d/BiasAdd/ReadVariableOp f4 [8]
000000 75 8a 87 bd 78 ff 6f bf 57 20 52 be fe 65 43 bf
       -0.066182055 -0.9374919 -0.20520149 -0.763275
000010 f2 cf 54 3e e8 a1 2f bf a8 c6 e2 bd 9e 6c ec be
       0.2078245 -0.68606424 -0.11073047 -0.46176618

sequential/conv2d_1/BiasAdd/ReadVariableOp f4 [16]
000000 35 53 00 be ae 38 11 3f a6 02 45 bf 72 ed b1 3e
       -0.12531741 0.5672711 -0.76957166 0.3475147
000010 63 00 af be 2f 17 cd 3e 4d 32 df bc 49 b1 82 bd
       -0.34179983 0.4005675 -0.027245665 -0.06381471
000020 4b 0d 85 3d f1 ff c8 bd ad f4 01 bf 0f 20 1a bf
       0.06496676 -0.09814442 -0.5076397 -0.6020517
000030 11 08 01 bf fd 5c 91 3d 43 86 22 3e 22 2d 88 3d
       -0.50402933 0.07097814 0.1587153 0.066492334

sequential/conv2d/Conv2D f4 [8, 4, 3, 1]
000000 a1 df 9e bd 90 28 5e 3e 37 3f 1c bd 51 20 5e be
       -0.077574976 0.21695161 -0.038146224 -0.21692015
000010 85 ee 2d b9 59 f2 a5 3c 32 b1 d6 3d fe 80 d8 3b
       -0.00016587421 0.020257162 0.10483016 0.006607174
000020 09 29 00 be ea f6 91 bc 85 7d 3e bd 1a 7f b6 bd
       -0.12515654 -0.017817933 -0.046506424 -0.089109614
000030 be 62 43 be 5d fa d1 3d 0b 0d 52 be 2f eb 8e bc
       -0.19080636 0.10252831 -0.20512788 -0.017446129
000040 e8 6b e4 bb c0 d1 46 be 4f b9 27 3c 2d 88 f8 bd
       -0.0069708712 -0.19415951 0.010237052 -0.121353485
000050 16 d6 0d bd a0 6c 6d 3e ca 66 95 3d b1 c0 23 3e
       -0.034627996 0.23185968 0.07294996 0.15991475
000060 4a b2 8c bb 18 f0 56 ba 3a 6e c2 bd 5a f1 bc 3b
       -0.0042937146 -0.0008199229 -0.0949368 0.005766076
000070 3d e2 93 bb c0 18 15 bd 76 61 49 3d d4 2b c8 3c
       -0.0045130537 -0.036400557 0.04916521 0.024434961
000080 bb 3f 24 3d 01 c9 7a bd 98 c7 e5 bd 71 c4 85 3d
       0.04009984 -0.06122685 -0.1121971 0.06531609
000090 df 6d be 3d 2f cc c0 bc 61 83 c3 3d b9 1b 38 3e
       0.092983 -0.023534862 0.09546543 0.17979325
0000a0 a1 cc 94 be 7c 5e 65 bd 08 07 64 bc 24 2b 6d 3b
       -0.2906237 -0.05599831 -0.013917692 0.0036189044
0000b0 99 2f e7 bd fb 21 0b bd 4a da 06 3e 88 cd 27 be
       -0.112883754 -0.033967953 0.13169208 -0.16386998
0000c0 b6 4b 36 3d d5 a6 35 be e6 fd dc bd 0c bb d7 3d
       0.044505797 -0.17739423 -0.10790615 0.10533723
0000d0 e6 d0 37 be 6e ab 00 3e cb 2a fb 3b 9d ce 15 be
       -0.17950782 0.12565395 0.0076650134 -0.14629598
0000e0 80 6b 10 3e 58 0f 59 3d bc f4 c6 3c 7e 5a 5e 3d
       0.14103508 0.05299315 0.02428662 0.05428552
0000f0 58 91 2e 3e 81 a3 fc bd eb 6e 1d be be df 82 3d
       0.17047632 -0.123358734 -0.15374343 0.06390332
000100 6c a7 bb 3d f4 c4 ce bd d0 a2 de bd fe 8e 1a be
       0.091627926 -0.100961596 -0.10870898 -0.1509361
000110 12 02 45 bd d0 d9 0f 3e 7e f4 8a 3d 0e 67 0e 3c
       -0.048097678 0.14047933 0.067849144 0.008691562
000120 d3 ee 58 be d8 e1 90 3c 11 c2 97 bd c6 d8 61 be
       -0.21184854 0.017685816 -0.07410062 -0.22055349
000130 d3 f8 ee 3d c2 8b 91 be 0b 51 f8 3b ef 27 cf 3d
       0.11668553 -0.2842694 0.0075780204 0.101150386
000140 8a 61 2e bd 78 c4 4c bd 89 93 c1 3d 10 7e 0d 3e
       -0.04257349 -0.049992055 0.09451968 0.1381762
000150 c2 70 42 bd 76 51 d9 3c df 87 9a 3e 8f 9c 9c 3d
       -0.047470815 0.026528101 0.30181786 0.07647049
000160 a0 73 1a be d3 fc 8c 3d f5 eb b4 bd ee 22 05 3e
       -0.1508317 0.0688416 -0.08834068 0.13001606
000170 b8 ec 04 be 7b 2e 61 be aa f8 77 3d 47 94 37 be
       -0.12980926 -0.21990387 0.06053988 -0.17927657

sequential/conv2d_1/Conv2D f4 [16, 4, 1, 8]
000000 7a db a6 3d 40 8f 5b 3e e5 e4 49 3e b6 8f 2f 3e
       0.081473306 0.21441364 0.19716223 0.17144665
000010 bc c1 e1 bd 68 0a 08 3e f6 61 26 be 64 9c ab bd
       -0.1102328 0.1328522 -0.16248307 -0.083794385
000020 2f f1 2b bd a4 c8 6d be 50 da c1 bd 2f 5c 70 3e
       -0.041978057 -0.2322107 -0.09465468 0.23472665
000030 5a ff 79 be 0c 33 33 be 67 f2 55 3d 89 3e 33 3e
       -0.24413815 -0.17499942 0.052233126 0.17504324
000040 a8 e3 eb 3b 7e a3 a0 bd 42 02 6e be 36 3c 2b 3e
       0.0071987696 -0.07843684 -0.23243049 0.16722187
000050 36 16 2e 3d 83 74 4a be 15 0b 0d be 61 84 2a 3d
       0.04250165 -0.19771008 -0.13773759 0.041630153
000060 4a 9a b2 bc 28 f5 64 be 16 5c cc bc 12 12 cb bd
       -0.021802086 -0.22359145 -0.024946254 -0.09915556
000070 17 89 3c be 0a 3a 00 3e e2 b9 fa bd 67 8e 99 3c
       -0.1841167 0.1252214 -0.122424856 0.01874466
000080 f4 f1 a5 3d 32 c1 f8 3c a0 93 69 be 68 71 18 3d
       0.081027895 0.03036556 -0.2281022 0.037217528
000090 d5 3b 06 be e8 10 1c ba fe 88 12 bb a5 8d e7 3d
       -0.13108762 -0.0005953447 -0.0022359486 0.113063134
0000a0 02 e1 33 3e 9d 07 12 be c9 f3 f1 bd 0d b8 31 be
       0.17566302 -0.14260717 -0.118140765 -0.17355366
0000b0 56 69 88 3e ef 90 3b be f1 8a b8 3d 5a 49 9a be
       0.26642865 -0.18317007 0.09010876 -0.30134088
0000c0 e5 e7 c3 bd a3 6b 73 3c a4 9d 08 bd cc d1 46 be
       -0.09565715 0.014857206 -0.033353463 -0.19415969
0000d0 b2 2f 14 3e 14 15 e9 3d d6 35 7b 3d 72 2a 9a be
       0.1447132 0.113809735 0.06133064 -0.30110508
0000e0 59 77 4a be e1 f5 3f be 83 72 6a be 34 92 ab bd
       -0.1977209 -0.18746139 -0.22895245 -0.083774954
0000f0 76 9c be be 41 f3 1f bd 12 e8 9c 3b c9 14 20 3e
       -0.37228745 -0.039050344 0.004788407 0.15632929
000100 42 57 59 be 87 96 64 be 0f 4a dc bd 09 e1 9f 3d
       -0.21224692 -0.22323047 -0.10756313 0.07806594
000110 b0 bc 1d bd cc 03 1b 3e aa 08 0b 3d 55 28 8e bd
       -0.038510025 0.15138167 0.03394381 -0.069412865
000120 b9 8c 12 3d 15 eb 13 3e fd d1 a6 3c 8e 94 56 3e
       0.035778735 0.14445145 0.020363802 0.20955107
000130 8c 13 b8 3d 59 47 0d 3d 40 19 cb bd 0a 17 5c bd
       0.08988103 0.03449187 -0.099169254 -0.05373291
000140 39 f6 33 bd 5d c8 dd 3d 61 6b 81 bb ef 91 2a 3e
       -0.043935988 0.10829232 -0.003949568 0.16657232
000150 84 da 20 be e9 bf 4b be a9 1c ac bc dc 54 9a 3d
       -0.15708357 -0.19897427 -0.02100976 0.07535717
000160 51 1a 1e 3e 25 04 d6 bd 4a 04 9c 3c 57 dc f3 bd
       0.15439726 -0.10450009 0.019045014 -0.11907261
000170 0f 21 34 3e 2c 50 15 3e 21 90 40 3d 93 f2 4c 3e
       0.17590736 0.14581364 0.047012452 0.2001441
000180 27 fa 8e be 19 5f b6 be 1a 61 2d be 63 e5 2d be
       -0.27925226 -0.3561943 -0.16931573 -0.16982035
000190 e7 0f 01 3e c5 b9 71 bc 6e 31 0b be c0 d8 1f 3d
       0.12603723 -0.014753764 -0.13593075 0.03902507
0001a0 65 a2 4f be d2 87 cd be be 65 8b 3d ee c9 b8 bd
       -0.20276792 -0.40142685 0.06806515 -0.0902289
0001b0 6a 59 5e bd ee a1 c5 bc d1 50 d2 bd d7 15 41 be
       -0.05428449 -0.024125066 -0.10269321 -0.18855987
0001c0 f1 11 e3 3d f9 05 68 be 0b e9 75 3e bc 89 da bc
       0.110874064 -0.22658528 0.2401468 -0.026677005
0001d0 3c 00 89 be ba e7 4d be a0 60 c4 be ba 66 9c 3d
       -0.2675799 -0.20107928 -0.3835497 0.07636781
0001e0 bb a2 4c bb 19 ce 89 3e 80 2d c8 bd 5f 9b b1 3e
       -0.0031224925 0.26915053 -0.097743034 0.3468885
0001f0 57 97 4a 3e d6 f8 e4 bc 74 eb bb 3d c5 35 67 3d
       0.19784294 -0.027950685 0.091757685 0.056447763
000200 46 c7 9c bc 5f 0f ae bd ec ee ed 3d ab ff 86 bc
       -0.01913799 -0.084990256 0.11617836 -0.016479334
000210 76 c8 d7 3d 8c 90 c5 3d e2 82 fa 3d f0 47 c2 3d
       0.10536282 0.09646711 0.12231995 0.09486377
000220 74 25 a1 bd c5 b2 a9 bc 3b 69 d8 3d 83 68 0b be
       -0.07868472 -0.020715127 0.10566946 -0.13614087
000230 e4 55 15 be e1 77 6e 3d f2 1c 4b 3d 70 f4 ce 3d
       -0.14583546 0.058219794 0.04958815 0.101052165
000240 61 62 67 3d 6a 14 3b 3e 3d f2 eb 3d 6c c4 65 be
       0.056490306 0.18269506 0.11520813 -0.2243821
000250 ad bc 11 be 36 00 46 be 98 03 29 3e 2f 09 b8 bd
       -0.1423213 -0.19336018 0.16505277 -0.08986127
000260 82 91 2b 3e 80 da 12 3e 6a 15 e9 bd 69 d7 fd bd
       0.16754726 0.14341164 -0.113810375 -0.12394602
000270 4f 9d 2b bd 7b 71 af bc db bd cb 3c 6d ad 62 be
       -0.041898068 -0.021416416 0.024870804 -0.22136469
000280 b5 42 71 be e8 85 90 3a 7b 45 6d bd b7 4c db bd
       -0.23560603 0.0011026235 -0.05792759 -0.107079916
000290 6c 26 8e bd bd 84 b6 3d f0 93 5b be 11 a6 e3 bd
       -0.06940922 0.089120366 -0.21443152 -0.11115659
0002a0 c4 37 54 3e 65 ad 67 3e f2 37 a2 3d af 72 d2 3d
       0.20724398 0.22624739 0.07920827 0.102757804
0002b0 74 f1 0f be 4d f0 1d 3e c2 32 12 3e 95 7f 14 bd
       -0.14056951 0.15423699 0.14277175 -0.036254484
0002c0 34 93 eb bd 59 e1 ed bd 4a 09 a0 be 3c cc 32 bb
       -0.11502686 -0.11615247 -0.31257087 -0.0027282378
0002d0 f8 75 c4 be c9 c7 2a bd 29 43 d9 bd 14 fb b9 bd
       -0.38371253 -0.041694436 -0.10608513 -0.090810925
0002e0 d6 f1 04 be 99 de 5b be 0c 35 09 3e 3b cb 99 bd
       -0.12982878 -0.21471633 0.13399142 -0.07509466
0002f0 ab 8c 4a be 6b d6 21 be 6e 43 82 3e 84 b4 7b 3e
       -0.19780223 -0.1580445 0.2544207 0.2458058
000300 55 28 46 3e 49 0c 30 be d2 9f 0a 3e 38 48 70 bc
       0.19351323 -0.17192186 0.13537529 -0.014665656
000310 68 09 0c ba 91 26 4b 3d 3b 59 c9 bd 7f 06 41 bd
       -0.0005341978 0.049597327 -0.098314725 -0.047125336
000320 c7 76 c5 3d 42 b3 6f bd 48 7f 42 be 92 9c 94 bc
       0.096417956 -0.058520563 -0.18993866 -0.018141065
000330 e6 20 78 bd 58 ff e0 bd 16 67 ec bd 11 48 14 3e
       -0.06057825 -0.10986203 -0.115430996 0.14480616
000340 7c 5c 8e bd cb f0 8b bd eb 48 3a be d7 47 ba bd
       -0.06951234 -0.06833037 -0.18191878 -0.090957336
000350 bd dc 11 3e dc 11 0e bd 56 41 99 bd a0 c3 91 3d
       0.14244361 -0.034685 -0.07483165 0.07117391
000360 6b 25 e3 3d 2e f3 48 3e c9 c7 01 3e 76 18 06 be
       0.11091121 0.19624016 0.12673868 -0.13095269
000370 8f a0 39 be 4f 4c 91 3d 97 5a 8d bd 7f a8 db bd
       -0.18127654 0.07094633 -0.06902044 -0.107254975
000380 c7 c6 af 3d 67 50 21 be 52 0d c3 3d 55 31 8d 3c
       0.08582836 -0.15753327 0.09524025 0.017235437
000390 75 68 46 3c 5b d6 5f bd 62 09 b6 bd c0 2d 6b 3d
       0.012109865 -0.054647785 -0.088885084 0.057416677
0003a0 99 ab f3 3d 4a de 04 3e 12 d8 3b be 16 8d 78 be
       0.11897964 0.12975422 -0.18344143 -0.2427257
0003b0 9e a7 18 bd 88 e2 53 3d f8 0f 9d 3e 19 a7 25 3e
       -0.037269227 0.05172971 0.30676246 0.16177024
0003c0 b9 ee 97 3d 03 0f b2 3d 9b 7e 80 3d 6d 49 38 be
       0.074185796 0.086942695 0.06274148 -0.1799676
0003d0 1e 9d 32 3e a3 22 06 be b2 18 07 be 57 6d 4c be
       0.17442748 -0.1309915 -0.13193014 -0.19963585
0003e0 51 c2 1d bd 8b fb 5b 3e c8 cb 34 be b6 cb 97 bd
       -0.038515393 0.21482675 -0.17655861 -0.07411902
0003f0 0a 15 38 be a8 cd bc bd 9c ee 48 be db b9 a6 3b
       -0.17976776 -0.09218913 -0.19622272 0.0050880737

sequential/dense/BiasAdd/ReadVariableOp f4 [16]
000000 62 81 08 bd c8 00 1c be ff da 04 bf d9 4a 24 be
       -0.033326514 -0.15234673 -0.5189666 -0.16044177
000010 44 73 9d be 6c ca cf bd 43 3d c1 3c d5 f7 cb 3e
       -0.30752003 -0.10146031 0.023588782 0.39837518
000020 b3 3d 36 bd 0f a2 0c bf 8f bd f6 bd 31 1e c8 be
       -0.044492435 -0.5493478 -0.12047874 -0.39085534
000030 5e 03 12 bf ac 5c 34 be 81 22 2c bf ff 8b c6 be
       -0.5703639 -0.17613477 -0.6724015 -0.38778684

sequential/dense_1/BiasAdd/ReadVariableOp f4 [2]
000000 e3 19 20 3f e5 19 20 bf
       0.625395 -0.6253951

sequential/dense/MatMul i1 [16, 64] scale=0.005782059 zero_point=0
000000 e0 0c 12 1a 02 01 e5 da c7 14 f8 d6 e0 cd 06 fd
       -0.18502589 0.06938471 0.10407706 0.15033354 0.011564118 0.005782059 -0.15611559 -0.21971823 -0.32957736 0.11564118 -0.04625647 -0.24284647 -0.18502589 -0.294885 0.034692355 -0.017346177
000010 f0 db ce ec ef 1e 0a 16 10 01 f5 03 d6 e2 17 e3
       -0.09251294 -0.21393618 -0.28910294 -0.11564118 -0.098295 0.17346177 0.05782059 0.1272053 0.09251294 0.005782059 -0.06360265 0.017346177 -0.24284647 -0.17346177 0.13298735 -0.16767971
000020 ea fe e2 00 17 02 de 1a f4 1d 1f d8 0f 05 18 1c
       -0.1272053 -0.011564118 -0.17346177 0.0 0.13298735 0.011564118 -0.19659 0.15033354 -0.06938471 0.16767971 0.17924383 -0.23128235 0.08673088 0.028910294 0.13876942 0.16189764
000030 e5 f3 f1 f7 df c2 f0 d9 d2 1b 05 e9 f7 cf 21 d9
       -0.15611559 -0.07516677 -0.08673088 -0.05203853 -0.19080794 -0.35848767 -0.09251294 -0.2255003 -0.2659747 0.15611559 0.028910294 -0.13298735 -0.05203853 -0.28332087 0.19080794 -0.2255003
000040 1b 00 fd 26 11 00 0b fa f8 d9 01 21 d2 ff f0 fe
       0.15611559 0.0 -0.017346177 0.21971823 0.098295 0.0 0.06360265 -0.034692355 -0.04625647 -0.2255003 0.005782059 0.19080794 -0.2659747 -0.005782059 -0.09251294 -0.011564118
000050 f7 d8 0d ec ca cb 02 e9 ce f9 f1 00 cf ff 1d 19
       -0.05203853 -0.23128235 0.07516677 -0.11564118 -0.31223118 -0.30644912 0.011564118 -0.13298735 -0.28910294 -0.04047441 -0.08673088 0.0 -0.28332087 -0.005782059 0.16767971 0.14455147
000060 d7 d7 ce 18 d5 17 cb cc f3 e2 12 f4 f4 de dc 1d
       -0.23706442 -0.23706442 -0.28910294 0.13876942 -0.24862853 0.13298735 -0.30644912 -0.30066708 -0.07516677 -0.17346177 0.10407706 -0.06938471 -0.06938471 -0.19659 -0.20815413 0.16767971
000070 16 02 ec eb ea f4 d7 21 d0 26 d2 07 f3 d5 f8 13
       0.1272053 0.011564118 -0.11564118 -0.12142324 -0.1272053 -0.06938471 -0.23706442 0.19080794 -0.27753884 0.21971823 -0.2659747 0.04047441 -0.07516677 -0.24862853 -0.04625647 0.10985912
000080 23 11 20 e7 f3 fc 26 2d 08 3e 3b 12 2d 24 2a 32
       0.20237206 0.098295 0.18502589 -0.14455147 -0.07516677 -0.023128236 0.21971823 0.26019266 0.04625647 0.35848767 0.34114146 0.10407706 0.26019266 0.20815413 0.24284647 0.28910294
000090 e7 6e 05 ae ea d6 1b ff f7 20 1a fe 06 ed 48 1d
       -0.14455147 0.6360265 0.028910294 -0.47412884 -0.1272053 -0.24284647 0.15611559 -0.005782059 -0.05203853 0.18502589 0.15033354 -0.011564118 0.034692355 -0.10985912 0.41630825 0.16767971
0000a0 23 16 eb e2 15 28 e5 fc fa 17 e2 0f fc fb 24 13
       0.20237206 0.1272053 -0.12142324 -0.17346177 0.12142324 0.23128235 -0.15611559 -0.023128236 -0.034692355 0.13298735 -0.17346177 0.08673088 -0.023128236 -0.028910294 0.20815413 0.10985912
0000b0 0f ea 10 0e 07 fc 22 ef 01 f5 06 21 e9 df e2 18
       0.08673088 -0.1272053 0.09251294 0.08094882 0.04047441 -0.023128236 0.19659 -0.098295 0.005782059 -0.06360265 0.034692355 0.19080794 -0.13298735 -0.19080794 -0.17346177 0.13876942
0000c0 cc d6 e5 09 fc 11 d6 1e ba d7 0d d8 28 1d db da
       -0.30066708 -0.24284647 -0.15611559 0.05203853 -0.023128236 0.098295 -0.24284647 0.17346177 -0.40474412 -0.23706442 0.07516677 -0.23128235 0.23128235 0.16767971 -0.21393618 -0.21971823
0000d0 fe 22 f1 ef 06 eb 19 28 d9 e9 2d fb ff f4 06 0a
       -0.011564118 0.19659 -0.08673088 -0.098295 0.034692355 -0.12142324 0.14455147 0.23128235 -0.2255003 -0.13298735 0.26019266 -0.028910294 -0.005782059 -0.06938471 0.034692355 0.05782059
0000e0 0e 00 f0 0a 28 ff 1b fa 23 dc f5 fb e1 d9 f1 22
       0.08094882 0.0 -0.09251294 0.05782059 0.23128235 -0.005782059 0.15611559 -0.034692355 0.20237206 -0.20815413 -0.06360265 -0.028910294 -0.17924383 -0.2255003 -0.08673088 0.19659
0000f0 ff eb eb 17 f5 dd eb e4 f5 23 fd df e1 14 09 1b
       -0.005782059 -0.12142324 -0.12142324 0.13298735 -0.06360265 -0.20237206 -0.12142324 -0.16189764 -0.06360265 0.20237206 -0.017346177 -0.19080794 -0.17924383 0.11564118 0.05203853 0.15611559
